app/src/main/assets/model.pt (torch, 917943 bytes, 16 tensors)

weight_ih_l0 f4 [48, 256]
-0.00028880488 0.005249477 0.0019385294 0.0008812055 0.0019513927 0.0050671306 -0.00207315 0.0030264037
0.0009677573 0.0014911051 0.0041977474 0.00038431256 0.0024191046 0.0030956336 0.0017581498 0.002939509
0.00036909274 -0.0013734914 0.0019337583 0.0004939234 -0.0027076425 0.0039278395 0.0025267506 -0.0009064104
0.0006841864 0.001532749 -4.9539638e-05 0.0016273664 0.0032472708 0.0012386721 0.00084548566 0.001052165
0.0018056632 -0.0019933614 0.00028830214 -0.00093219016 0.00281655 0.0052523417 0.0020598322 -0.0017014132
0.0025826236 0.0024561167 0.0012326962 0.004124893 0.00039001327 0.0023685275 0.003733515 0.0042921975
0.0005989698 0.0031981354 0.0015447914 0.0026410515 0.00044514085 0.0009585087 -0.002567402 0.0045727217
0.0032497302 0.0015239619 0.0040450804 -0.00023280653 -0.0021607578 0.004180613 0.0037359365 -0.00010079949
-0.00031124798 0.0051583876 0.0014495743 0.0012794941 0.0025627364 0.004932413 -0.0021801572 0.004168148
0.00092529564 0.0013961432 0.0051247366 -0.000120927696 0.0022405726 0.0031636022 0.0010014367 0.0039720614
0.0006165622 -0.0004979813 0.0022192847 0.0001853421 -0.0019551201 0.0027350634 0.0032983983 -0.0010747198
0.0013707443 0.0013922914 -0.00065889966 0.0025110124 0.0028396402 0.0011914666 0.0005743241 0.0010739118
0.0020662032 -0.0015419077 0.0006448934 -0.0025210413 0.0026578822 0.0053681214 0.0031826159 -0.0014468353
0.0019730015 0.0030054823 0.0013021586 0.0052106525 -0.00084127847 0.0011457988 0.0042146635 0.004197541
0.00078196195 0.0030899737 0.0020476573 0.0019566533 -0.00044161262 0.0018963465 -0.0027103205 0.0044606733
0.0036309976 0.0015144438 0.00404896 9.776587e-05 -0.003036098 0.0039023 0.005068432 0.0006080885
-0.000409702 0.005198777 0.00013386928 0.0020196207 0.003418839 0.0048196525 -0.0017137602 0.0039936
-0.00048005063 0.0009057275 0.005245625 0.00012225869 0.0013508569 0.003086391 0.0010061417 0.0026699367
0.0027237742 -0.0005948846 0.0028634162 0.00074894767 -0.0027655507 0.002892382 0.003369291 -0.0010481452
0.0023675808 0.0016700884 -0.0006365785 0.0024169725 0.001684518 0.001967673 -0.0015410446 0.00039863976
0.0011624546 -0.0025678005 0.0010721153 -0.0027244803 0.0025760555 0.005425143 0.0028199067 0.00039173846
0.0007320955 0.0036115376 0.001037304 0.0051711025 3.6195906e-05 0.00094156316 0.004439593 0.0038627859
0.0014478446 0.0026723254 0.002761684 0.0016699506 -0.0007640441 0.0035798992 -0.0023937214 0.0047378936
0.0043169246 0.0018153415 0.0035226888 0.00027326948 -0.0035859903 0.0040667164 0.0046247663 0.0018324191
5.673582e-05 0.0046249083 0.0012892369 0.0023440553 0.0036869026 0.0037212837 -0.0014422592 0.003493678
-0.0005546659 0.0011385784 0.003230957 -0.000447274 0.00060745125 0.0024310674 0.0020819558 0.0015939876
0.0022356336 0.0012113366 0.0037650266 0.00061237445 -0.0022765466 0.0025613378 0.0022114704 -0.0003286759
0.0014951311 0.0015454954 -0.0009934518 0.003063134 0.00088901416 0.0014187647 -0.0016999317 0.0004160523
-0.0003056015 -0.002642784 0.00021550103 -0.0011956579 0.0010794839 0.0042284178 0.0001964299 -5.2359243e-05
0.004039194 0.0031496575 0.0017594309 0.0033328417 0.00021149672 0.00085594656 0.0030578885 0.005453848
0.00043555474 0.0013568496 0.0030190216 0.00041005964 -0.00024578522 0.0034026557 -0.0031929929 0.005637767
0.0047449362 0.001076604 0.0033105256 0.0011740986 -0.0037762157 0.0020368544 0.0043998174 0.0018851296
00000000: bc6a 97b9 ce03 ac3b 4116 fe3a b300 673a
00000010: e0c5 ff3a 2c0a a63b afdd 07bb a156 463b
00000020: 18b1 7d3a 2f71 c33a 428d 893b 8f7d c939
00000030: d789 1e3b 1de0 4a3b b871 e63a c7a4 403b
00000040: ca82 c139 b906 b4ba 2976 fd3a a37a 013a
00000050: b472 31bb 1bb5 803b d797 253b 2c9c 6dba
00000060: f95a 333a 86e6 c83a c8c8 4fb8 5b4d d53a
00000070: 2ad0 543b f05a a23a 95a3 5d3a cde8 893a
00000080: 01ac ec3a 0ea3 02bb 4227 9739 395e 74ba
00000090: de95 383b d61b ac3b 40fe 063b f401 dfba
000000a0: 3c41 293b cdf6 203b 6c92 a13a 1c2a 873b
000000b0: b27a cc39 4c39 1b3b fdad 743b 90a5 8c3b
000000c0: 2f04 1d3a cf97 513b 997a ca3a 7e15 2d3b
000000d0: cb61 e939 6e44 7b3a dc41 28bb c5d6 953b
000000e0: 6df9 543b adbf c73a 988c 843b 871d 74b9
000000f0: 809b 0dbb 86fd 883b 9dd6 743b 5064 d3b8
00000100: ff2e a3b9 b107 a93b a4ff bd3a b3b4 a73a
00000110: 95f3 273b 14a0 a13b f8e0 0ebb f694 883b
00000120: 8a8f 723a cbfe b63a 68ed a73b 909a fdb8
00000130: 92d6 123b 7054 4f3b a442 833a 1128 823b
00000140: caa0 213a f68a 02ba 6b71 113b 6458 4239
00000150: 7921 00bb c03e 333b f129 583b 9ddd 8cba
00000160: 8caa b33a 8c7d b63a 02ba 2cba cc8f 243b
00000170: 4219 3a3b fc2a 9c3a 3d8e 163a 80c2 8c3a
00000180: 2369 073b d619 caba 100e 293a 0e38 25bb
00000190: dd2f 2e3b 11e7 af3b 6f93 503b bda3 bdba
000001a0: 794d 013b a0f7 443b 31ad aa3a 1fbe aa3b
000001b0: 3e89 5cba a12e 963a 291b 8a3b 878b 893b
000001c0: 94fc 4c3a 2881 4a3b fd31 063b 323b 003b
000001d0: 3e88 e7b9 d48e f83a a29f 31bb d72a 923b
000001e0: 08f6 6d3b 4d80 c63a 23ad 843b a707 cd38
000001f0: 46f9 46bb bbbd 7f3b 1715 a63b 2168 1f3a
00000200: 46cd d6b9 815a aa3b 435f 0c39 9d5b 043b
00000210: 9a0e 603b 2dee 9d3b 40a0 e0ba bfdc 823b
00000220: 4eaf fbb9 586e 6d3a 7ee3 ab3b 9132 0039
00000230: 3c0f b13a 0c45 4a3b 83e0 833a 1bfa 2e3b
00000240: 5981 323b 08f2 1bba 27a8 3b3b 0755 443a
00000250: 3e3e 35bb 1e8e 3d3b 53cf 5c3b eb61 89ba
00000260: 6a29 1b3b dee6 da3a 0fe0 26ba 1266 1e3b
00000270: 0bcb dc3a 13f4 003b e0fc c9ba 8600 d139
00000280: 815d 983a 8b48 28bb 3886 8c3a 328d 32bb
00000290: 0ad3 283b 66c5 b13b 2fce 383b 3f62 cd39
000002a0: 19ea 3f3a 8caf 6c3b 26f6 873a 5a72 a93b
000002b0: 0fd1 1738 3cd3 763a 017a 913b cb26 7d3b
000002c0: 9ac5 bd3a 2e22 2f3b 5efd 343b 3ee2 da3a
000002d0: 224a 48ba be9c 6a3b fbdf 1cbb 5540 9b3b
000002e0: fd74 8d3b c1f0 ed3a e9dc 663b 9c45 8f39
000002f0: ef02 6bbb 1742 853b 5a8b 973b c82d f03a
00000300: 9ff7 6d38 8b8c 973b 9dfb a83a b99e 193b
00000310: f69f 713b c8e0 733b 300a bdba 31f6 643b
00000320: 0067 11ba 5a3c 953a 77be 533b 1a80 eab9
00000330: 5d3d 1f3a 8b52 1f3b 6c71 083b 59ed d03a
00000340: b583 123b b6c5 9e3a aabe 763b c187 203a
00000350: 1d32 15bb 1edc 273b 51ee 103b 2252 acb9
00000360: 46f8 c33a 3892 ca3a b636 82ba dcbe 483b
00000370: bb0c 693a d8f5 b93a 3ed0 deba 9821 da39
00000380: 2439 a0b9 8f32 2dbb 1ef8 6139 9fb7 9cba
00000390: 787d 8d3a 8a8e 8a3b c0f8 4d39 4f9c 5bb8
000003a0: 375b 843b 7c6a 4e3b b49c e63a ce6b 5a3b
000003b0: 38c5 5d39 9a61 603a db66 483b 31b6 b23b
000003c0: 2b5b e439 51d8 b13a c7da 453b 46fd d639
000003d0: bcdc 80b9 17ff 5e3b 8841 51bb 04bd b83b
000003e0: 697b 9b3b d61c 8d3a 67f5 583b 36e4 993a
000003f0: 637a 77bb bf7c 053b 582c 903b 7416 f73a

weight_hh_l0 f4 [48, 16]
0.0032134834 -0.00027309966 -0.0021942207 -4.0660743e-05 0.00022165528 0.00028646196 0.0034139946 0.00056920294
0.0050073955 -0.0058683557 -0.003798631 0.0026118276 -0.0038607127 -0.0010446 -0.0022182988 0.0021550416
0.0072464994 -0.007982273 0.006431699 -0.0063795927 0.0025121663 0.0050577084 0.010285082 0.01072369
0.0043802042 0.0016380723 0.004549031 0.0051802467 -0.004636086 0.011174324 -0.000654747 0.00436539
0.0042502643 -0.0021630428 0.0020167443 -0.004325391 -0.0035971336 0.0011976961 0.006947116 0.0039123925
0.0003683037 -0.0020364667 0.0016248451 0.00089190475 -0.00044936695 0.005063352 -0.0003787918 -0.0020293738
0.0016971347 0.00049118407 -0.0006414415 -0.0061562997 -0.0045064515 -0.0013112173 0.005017542 0.00651131
-0.007119593 0.0039852057 0.002490615 0.0034015095 0.0029262556 0.0031220175 0.001396504 -0.0013104382
0.011495265 -0.014630922 0.008056057 -0.005729662 0.009136101 0.012045295 0.015692767 0.017747875
0.014401193 0.0035014334 0.012013642 0.0060559376 -0.013785247 0.014952926 -0.00058398733 0.0099986885
0.007000879 -0.00020198245 -0.004150327 -0.001417745 -0.0012575402 -0.0015596093 0.007983892 0.003260986
0.005599848 -0.015587418 -0.00662198 0.0034290287 -0.0028253617 -0.0016608214 -0.0019109054 0.002647787
0.0028096235 -0.0016408496 -0.0013500705 -0.005196237 -0.0030009216 -0.0065001454 0.0052680564 0.004891253
-0.0020220603 -0.0014173455 0.0018816811 -0.0012238069 0.0013082529 0.005994575 0.0011748841 -0.0010768163
0.0036191079 -0.004372765 -0.0022138355 0.009159457 0.004743218 0.0020015135 -0.00032025334 0.00081839575
0.007812852 -0.007834474 0.000108834574 0.0030763522 -0.0038091782 -0.0044603865 -3.0244806e-05 4.728221e-05
0.0062713167 -0.004769995 0.0017171631 -0.00932925 -0.0022001325 -0.0033655192 0.009763928 0.006756945
-0.002603141 0.0010894149 0.0064259446 0.00092164695 0.00010726029 0.0141019495 -0.00083992264 0.00097258756
0.010519384 -0.0075047417 0.001680871 -0.011856841 0.002600994 -4.256085e-05 0.011530406 0.0060499418
-0.004652807 0.0031505171 0.009386621 0.0041168462 0.0017190566 0.018328093 0.004525318 -0.0011405777
0.0056818193 -0.007830348 0.0009932264 -0.0028584935 0.00048402898 0.0036722766 0.008637537 0.008526603
-0.00090263534 -0.009876646 0.0005068674 0.0048862877 0.0017859743 0.009149739 0.0018597901 0.0075073605
0.0071036755 -0.003801873 -0.004518833 -0.00571693 -0.0022283548 -0.0019742367 0.015941424 0.008954147
0.0033159666 -0.016676445 0.002239094 -0.0015583166 0.00018341583 0.0031202054 0.001029363 0.0014383036
-0.0011325504 -0.00088761287 -0.0023663968 0.0029893382 0.0035039599 0.0051875403 -0.00071810203 -0.0036901354
0.004898991 -0.0036257454 0.0014578922 -0.004762071 -0.0027191043 -0.0044111134 -0.002577178 -0.00015446624
0.0044370303 -0.00085367745 -0.005833279 -2.8677121e-05 -0.001896309 -0.0004157752 0.006635449 -0.003459708
0.0076423804 -0.010895301 0.0027309214 -0.00841011 -0.0082831485 -0.0025580896 -0.0030030627 -0.0030557364
0.00056517095 -0.00011079118 -0.0016478979 -0.00012007123 -0.00052817963 0.0027283619 0.0029933297 0.00030633554
0.0015219656 -0.0034836081 -0.0022405037 0.0010727743 0.00052205997 -0.001687445 -0.0016749009 -0.00014537292
0.022464056 0.0034117487 -0.0072400915 -0.028732635 -0.019359646 0.0067209434 0.03478596 0.016157199
0.008597182 -0.006658698 0.020558193 -0.00097556505 -0.010210501 0.033082236 0.005286568 -0.0008332965
00000000: 4e99 523b d12e 8fb9 eacc 0fbb 248b 2ab8
00000010: 236c 6839 4630 9639 53bd 5f3b 9036 153a
00000020: 1415 a43b 564b c0bb 74f2 78bb 322b 2b3b
00000030: 0304 7dbb f6ea 88ba e160 11bb 993b 0d3b
00000040: 0b74 ed3b 14c8 02bc 00c1 d23b e70b d1bb
00000050: 28a3 243b 22bb a53b c382 283c 6ab2 2f3c
00000060: d187 8f3b 96b4 d63a 0a10 953b 0fbf a93b
00000070: 4fea 97bb 8314 373c 54a3 2bba 8c0b 8f3b
00000080: cd45 8b3b d6c1 0dbb 5b2b 043b 02bc 8dbb
00000090: e3bd 6bbb 03fc 9c3a a2a4 e33b 8733 803b
000000a0: e318 c139 3e76 05bb c1f8 d43a b7ce 693a
000000b0: 0399 ebb9 7aea a53b 9398 c6b9 3eff 04bb
000000c0: 6472 de3a cec2 003a 6926 28ba c9ba c9bb
000000d0: dbaa 93bb 27dd abba 316a a43b d45c d53b
000000e0: 7a4b e9bb 5496 823b 9639 233b dceb 5e3b
000000f0: 6cc6 3f3b c39a 4c3b e60a b73a 02c3 abba
00000100: a356 3c3c 89b6 6fbc 8dfd 033c e3bf bbbb
00000110: 96af 153c a159 453c 1e8e 803c fe63 913c
00000120: fbf2 6b3c 4e78 653b ded4 443c e370 c63b
00000130: 84db 61bc 1efd 743c ba16 19ba 8ad1 233c
00000140: a167 e53b 40cb 53b9 77ff 87bb a1d3 b9ba
00000150: 0cd4 a4ba ce6b ccba dfce 023c 44b6 553b
00000160: ee7e b73b 5f62 7fbc 32fd d8bb 8eb9 603b
00000170: b429 39bb ebaf d9ba 5877 faba 7f86 2d3b
00000180: a921 383b c711 d7ba d9f4 b0ba 3245 aabb
00000190: 1cab 44bb 2cff d4bb a99f ac3b ce46 a03b
000001a0: 8b84 04bb 39c6 b9ba bea2 f63a 2568 a0ba
000001b0: af79 ab3a 246e c43b 92fe 993a f623 8dba
000001c0: 8e2e 6d3b 6949 8fbb ff15 11bb 8c11 163c
000001d0: ff6c 9b3b d32b 033b ade7 a7b9 9c89 563a
000001e0: 7a01 003c 2a5c 00bc 1e3e e438 a09c 493b
000001f0: 68a3 79bb 6f28 92bb 3ab6 fdb7 e350 4638
00000200: 9e7f cd3b 9e4d 9cbb 6f12 e13a b6d9 18bc
00000210: 1930 10bb 0b90 5cbb e2f8 1f3c 5d69 dd3b
00000220: 7599 2abb b3ca 8e3a bb90 d23b ae9a 713a
00000230: eef0 e038 dd0b 673c 412e 5cba 3ff5 7e3a
00000240: 7f59 2c3c 56ea f5bb ac50 dc3a 3243 42bc
00000250: 7075 2a3b 5d83 32b8 07ea 3c3c 973e c63b
00000260: 9376 98bb e878 4e3b 58ca 193c 9ce6 863b
00000270: f851 e13a cc24 963c 1e49 943b 707f 95ba
00000280: 8e2e ba3b dc4a 00bc 262f 823a 9055 3bbb
00000290: 45c5 fd39 94aa 703b 7584 0d3c 2ab3 0b3c
000002a0: d59e 6cba a8d1 21bc 4cdf 043a 271d a03b
000002b0: 5a17 ea3a c9e8 153c 33c4 f33a 4e00 f63b
000002c0: f3c5 e83b d828 79bb b812 94bb 1655 bbbb
000002d0: 9709 12bb 3262 01bb 9797 823c 6ab4 123c
000002e0: b050 593b 0a9d 88bc c4bd 123b 6e40 ccba
000002f0: 5053 4039 5c7c 4c3b b1eb 863a 7685 bc3a
00000300: 1672 94ba b1ae 68ba 8d15 1bbb c6e8 433b
00000310: b1a2 653b 3efc a93b 033f 3cba 33d6 71bb
00000320: b787 a03b ea9d 6dbb bf16 bf3a 260b 9cbb
00000330: 0033 32bb 1a8b 90bb dfe5 28bb 37f8 21b9
00000340: 8264 913b 53c9 5fba 1725 bfbb a68f f0b7
00000350: 928d f8ba 67fc d9b9 2e6e d93b 45bc 62bb
00000360: ef6c fa3b 3482 32bc 42f9 323b 8fca 09bc
00000370: 0bb6 07bc 9fa5 27bb 08cf 44bb c042 48bb
00000380: fb27 143a 9058 e8b8 47fe d7ba c0ce fbb8
00000390: 8975 0aba 51ce 323b bd2b 443b a99b a039
000003a0: b17c c73a 3f4d 64bb 6ad5 12bb 559c 8c3a
000003b0: dada 083a 422d ddba 5988 dbba 3f6f 18b9
000003c0: 8a06 b83c a597 5f3b 4a3e edbb b460 ebbc
000003d0: 1f98 9ebc 5c3b dc3b b97b 0e3d 1a5c 843c
000003e0: 32db 0c3c 3531 dabb a869 a83c 10bd 7fba
000003f0: f249 27bc 3d81 073d f23a ad3b 9571 5aba

bias_ih_l0 f4 [48]
0.007014728 0.01540313 0.0086523695 0.0071212472 0.028714279 0.020662889 0.007605838 0.00558592
0.013644646 0.020055555 0.020522567 0.036882713 0.0025985462 0.012624825 0.00533139 0.06656969
0.031915206 0.083966784 0.0093504395 -0.008873867 0.098253846 0.07610474 0.0036834618 0.037312567
0.0010115121 0.0371666 0.039451424 -0.080557264 0.0061683618 0.089725465 0.0029601245 -0.06294067
0.12074607 0.003572266 -0.10701306 -0.12305556 -0.07280914 -0.17509574 0.10529324 -0.12525755
-0.04666171 -0.05399175 -0.019440807 -0.027016586 -0.08169849 -0.021595271 0.1050856 0.16194011
00000000: cedb e53b 695d 7c3c abc2 0d3c 5a59 e93b
00000010: 353a eb3c 3845 a93c 653a f93b 180a b73b
00000020: cb8d 5f3c 8c4b a43c f11e a83c 5412 173d
00000030: 5f4c 2a3b 5bd8 4e3c f1b2 ae3b b155 883d
00000040: 85b9 023d c7f6 ab3d 9632 193c b263 11bc
00000050: 5039 c93d cddc 9b3d 3c66 713b 10d5 183d
00000060: b794 843a 013c 183d d197 213d 35fb a4bd
00000070: f81f ca3b fcc1 b73d a6fe 413b 0ae7 80bd
00000080: b749 f73d ae1c 6a3b aa29 dbbd 8e04 fcbd
00000090: f51c 95bd 4c4c 33be fba3 d73d 8443 00be
000000a0: 5920 3fbd 7426 5dbd 5442 9fbc e351 ddbc
000000b0: 8a51 a7bd 91e8 b0bc 1e37 d73d a1d3 253e

bias_hh_l0 f4 [48]
0.007016316 0.015390845 0.0086523695 0.0071245627 0.027527917 0.020700317 0.007605838 0.0058554914
0.013315296 0.0191695 0.02020768 0.03718786 0.0025986189 0.012611479 0.005331185 0.061659876
0.023614047 0.031596832 0.023227781 -0.008851911 0.11201633 0.10987634 0.0052014044 -0.016718542
0.020906307 0.03173506 0.103914194 0.19252153 0.04211797 -0.017813494 0.008643793 0.09068971
0.07207027 0.0050956276 -0.056451607 -0.074570686 0.14043115 -0.07502539 -0.0007545002 0.13841753
0.091604635 0.1373172 -0.05982599 0.020158416 0.036706593 0.023772208 0.09545685 0.03970818
00000000: 20e9 e53b e229 7c3c abc2 0d3c 2a75 e93b
00000010: 3a82 e13c b693 a93c 653a f93b 6cdf bf3b
00000020: 6628 5a3c 5b09 9d3c 948a a53c 4c52 183d
00000030: 974d 2a3b 60a0 4e3c 39b1 ae3b 118f 7c3d
00000040: 3f72 c13c ae6b 013d 3048 be3c 9b07 11bc
00000050: d168 e53d d906 e13d 8b70 aa3b 53f5 88bc
00000060: b443 ab3c 9ffc 013d f7d0 d43d 5d24 453e
00000070: e483 2c3d 9bed 91bc b29e 0d3c 87bb b93d
00000080: 9499 933d 39f9 a63b cd39 67bd 84b8 98bd
00000090: 2fcd 0f3e e9a6 99bd a7c9 45ba 53bd 0d3e
000000a0: 369b bb3d e19c 0c3e 190c 75bd 4323 a53c
000000b0: a759 163d efbd c23c e27e c33d 0ba5 223d

weight_ih_l1 f4 [48, 16]
0.044216413 -0.008298317 -0.009087044 -0.020411434 -0.0014191569 -0.0028279019 0.043624703 0.038051035
0.009258327 -0.02534907 0.0029991672 0.019030796 -0.0111415265 0.03405985 0.0126360115 0.007776835
0.07006325 -0.0069360496 -0.08338203 -0.029717324 -0.09295776 -0.04927395 0.05084435 0.034858778
0.038623486 -0.070050426 0.010108315 0.020735228 -0.06526176 0.08433231 0.019517275 0.0010880977
0.044683557 0.017123725 -0.026292091 -0.02019073 -0.034089383 -0.0114141675 0.04508904 0.028913792
0.014685272 -0.04062515 0.0060175965 0.01329421 -0.018845925 0.020014549 0.012790388 0.0023596184
0.017137509 0.0026229988 -0.0075891144 -0.006534431 -0.006514391 -0.005502247 0.018657211 0.011819511
0.008956285 -0.01605671 0.0028556904 0.0027843036 -0.0084774615 0.00712386 0.005230664 0.0025230069
0.079163946 -0.0064951163 -0.025102325 0.022686051 -0.036093432 -0.032982606 0.084490575 0.04244696
0.033214707 -0.09713635 -0.028818771 0.02946683 -0.055441868 0.034216266 -0.01077585 0.032114625
0.042146705 0.017398616 -0.025510045 -0.023320029 -0.033936914 -0.037101835 0.04602326 0.02468974
-0.0012653669 -0.0447934 -0.009212757 0.03393781 -0.0019014633 0.024759218 0.017981926 0.013682392
0.032178815 -0.011235812 -0.0066782385 -0.021781586 0.0015410018 0.0021797384 0.03712055 0.039762035
-0.0002704418 -0.011215306 0.008528233 0.01990675 -0.0006472524 0.025503272 0.016262824 0.0047311364
0.07915172 0.02211761 -0.043278564 -0.027401526 -0.012875222 -0.0005776068 0.123269565 0.02920904
0.010053607 -0.025508014 0.062044468 0.013291027 -0.046628833 0.07278262 0.026864363 -0.019923806
0.046631936 0.06949944 -0.054967638 -0.10454814 -0.04332889 0.05261213 0.09626994 0.11232211
0.032294393 0.037765145 0.06658632 -0.0047701844 -0.060501274 0.020183742 0.03292356 -0.021631226
0.04812132 0.014138746 -0.030261917 -0.029112635 -0.021524934 0.0018542666 0.070438094 0.036180418
0.02693011 -0.030900395 0.0316629 0.0061975936 -0.021431385 0.014138603 0.014406818 -0.0059921117
0.09811549 -0.01754811 -0.06051624 -0.08462467 -0.05291888 -0.018230597 0.14702615 0.06226624
0.0022756022 -0.049652047 0.03782626 0.038055215 0.01804444 0.08310696 0.01005388 -0.029181948
0.04040929 -0.012205345 -0.0053567244 -0.024648298 -0.0031967168 -0.007797802 0.053276114 0.027789831
0.012699795 -0.013137834 0.016278105 0.009176929 -0.016441315 0.06452863 0.006150499 -0.0023955635
0.06271695 0.02648541 -0.014825726 -0.004134605 0.0050790105 -0.03604985 0.07452857 0.021268941
-0.0031573905 -0.03758494 0.0028459756 0.035721812 -0.019526828 0.06356034 0.017901491 0.008407678
0.05335574 0.022652447 -0.03913589 -0.057321344 -0.003365469 -0.050467994 -0.0070898538 -0.013176787
0.017169653 -0.0070385146 -0.023386274 0.039773773 -0.0054419837 0.05142818 0.009194169 0.024551652
0.059106372 -0.022462007 -0.018737331 -0.024921797 0.0021181775 0.002427306 0.076561324 0.061984967
0.004785743 -0.033364125 0.0051465514 0.025951568 -0.010965402 0.05509519 0.0195231 0.014030521
0.059232634 0.007911237 -0.032067697 -0.011167424 -0.0140479915 -0.03493361 0.052784666 0.031352714
0.012943434 -0.042855762 -0.00277007 0.026742488 -0.017654533 0.050889164 0.013921201 0.02375611
00000000: 451c 353d aaf5 07bc d3e1 14bc e135 a7bc
00000010: 0103 baba 5254 39bb d1af 323d 67db 1b3d
00000020: 3db0 173c daa8 cfbc ad8d 443b 79e6 9b3c
00000030: f38a 36bc 5782 0b3d 4607 4f3c d2d4 fe3b
00000040: 527d 8f3d cd47 e3bb 33c4 aabd bf71 f3bc
00000050: a360 bebd 7bd3 49bd 2a42 503d 14c8 0e3d
00000060: a933 1e3d 9976 8fbd 599d 253c eddc a93c
00000070: f5a7 85bd 6bb6 ac3d b1e2 9f3c 809e 8e3a
00000080: 1b06 373d 0e47 8c3c 8362 d7bc 0867 a5bc
00000090: 4fa1 0bbd 7d02 3bbc 49af 383d 9edc ec3c
000000a0: 7f9a 703c 8f66 26bd 422f c53b f5cf 593c
000000b0: c562 9abc 8df5 a33c c78e 513c d4a3 1a3b
000000c0: f663 8c3c 9ee6 2b3b 1bae f8bb c81e d6bb
000000d0: ac76 d5bb 314c b4bb 02d7 983c 9fa6 413c
000000e0: 62bd 123c 5d89 83bc 8926 3b3b dd78 363b
000000f0: 0de5 0abc 456f e93b fd65 ab3b 0859 253b
00000100: b520 a23d fcd4 d4bb 64a3 cdbc 19d8 b93c
00000110: b5d6 13bd c518 07bd 6509 ad3d dddc 2d3d
00000120: 250c 083d 6cef c6bd 5815 ecbc 6c64 f13c
00000130: 0317 63bd 5b26 0c3d 318d 30bc a08a 033d
00000140: 06a2 2c3d 8b87 8e3c 71fa d0bc a509 bfbc
00000150: 6f01 0bbd 18f8 17bd e382 3c3d 2342 ca3c
00000160: abda a5ba 4979 37bd 1bf1 16bc 6002 0b3d
00000170: 853a f9ba d8d3 ca3c d54e 933c 1d2c 603c
00000180: efcd 033d 6916 38bc 20d5 dabb 4c6f b2bc
00000190: 71fb c93a f1d9 0e3b b80b 183d 84dd 223d
000001a0: 15ca 8db9 67c0 37bc 00ba 0b3c 7b13 a33c
000001b0: 60ac 29ba 3dec d03c 9d39 853c a607 9b3b
000001c0: 4c1a a23d fd2f b53c dd44 31bd 2a79 e0bc
000001d0: 98f2 52bc 896a 17ba c174 fc3d cc47 ef3c
000001e0: e2b7 243c 2ff6 d0bc 5722 7e3d 9cc2 593c
000001f0: e0fd 3ebd 0e0f 953d a712 dc3c 4037 a3bc
00000200: 2101 3f3d b955 8e3d bf25 61bd 561d d6bd
00000210: a279 31bd d17f 573d 2d29 c53d 2209 e63d
00000220: 2047 043d a0af 1a3d 695e 883d 354f 9cbb
00000230: 2fd0 77bd 6058 a53c dbda 063d f833 b1bc
00000240: dc1a 453d 33a6 673c d7e7 f7bc 9f7d eebc
00000250: 0f55 b0bc dd0a f33a d941 903d eb31 143d
00000260: 899c dc3c d322 fdbc f5b0 013d 2f15 cb3b
00000270: df90 afbc 99a5 673c 930a 6c3c 7a59 c4bb
00000280: c6f0 c83d 0ec1 8fbc e0df 77bd b34f adbd
00000290: 78c1 58bd 5558 95bc 068e 163e e30a 7f3d
000002a0: 4522 153b f25f 4bbd b5ef 1a3d c9df 1b3d
000002b0: efd1 933c fb33 aa3d 07b9 243c fb0e efbc
000002c0: 3684 253d edf8 47bc 7687 afbb 3aeb c9bc
000002d0: 0280 51bb b484 ffbb 0e38 5a3d 80a7 e33c
000002e0: cd12 503c 1240 57bc a959 853c d45a 163c
000002f0: f0af 86bc 9627 843d 208a c93b e3fe 1cbb
00000300: bf71 803d eef7 d83c 9ae7 72bc 957b 87bb
00000310: d46d a63b 02a9 13bd 6fa2 983d 343c ae3c
00000320: 39ec 4ebb abf2 19bd 8c83 3a3b 0951 123d
00000330: baf6 9fbc ec2b 823d 26a6 923c 5cc0 093c
00000340: 8c8b 5a3d a091 b93c f44c 20bd c9c9 6abd
00000350: 338f 5cbb 87b7 4ebd 0152 e8bb 73e3 57bc
00000360: 5fa7 8c3c 57a3 e6bb 9294 bfbc d3e9 223d
00000370: ab52 b2bb 5ba6 523d 24a3 163c 8c20 c93c
00000380: 8619 723d 3e02 b8bc 087f 99bc cc28 ccbc
00000390: 1fd1 0a3b 7013 1f3b 2fcc 9c3d f3e3 7d3d
000003a0: b9d1 9c3b d2a8 08bd 67a4 a83b 6298 d43c
000003b0: 3ba8 33bc 7eab 613d e9ee 9f3c 45e0 653c
000003c0: eb9d 723d 229e 013c 6b59 03bd 92f7 36bc
000003d0: 8c29 66bc 8c16 0fbd bc34 583d b46b 003d
000003e0: b210 543c 8689 2fbd 108a 35bb 1013 db3c
000003f0: 3da0 90bc 2871 503d c015 643c 2c9c c23c

weight_hh_l1 f4 [48, 16]
-0.005370862 0.031103577 0.027391355 0.027544726 -0.0102327345 0.0075918073 -0.002153051 0.03723901
0.038360767 -0.036839124 -0.025079744 -0.007651158 -0.010745014 0.010801829 -0.007459529 0.0135603165
-0.018128853 0.029291077 0.036160342 0.047372315 0.016703116 0.01190236 0.04156288 0.011259664
0.0063668974 -0.0011072983 -0.044240337 -0.011317613 -0.06832869 0.030769574 -0.055553507 0.07200204
-0.008659296 0.0069765598 0.014849603 0.024285035 -0.009278415 0.0061086705 -0.004693742 0.013558367
0.018412843 -0.010518277 -0.015872454 -0.0142853735 -0.015808746 0.00953431 -0.008796709 0.016374493
-0.0016946353 0.0038116425 0.0044015013 0.006852878 -0.0026514153 0.0020222636 -0.00053553935 0.004159529
0.004745169 -0.0036376393 -0.0044627455 -0.0028793958 -0.0037416895 0.00253318 -0.0017901675 0.003529841
-0.004178853 0.033338077 0.045992743 0.055487234 -0.017905608 0.02604607 -0.000869245 0.031690788
0.030303689 -0.04330353 -0.06713836 -0.027075017 -0.059191786 0.041735664 -0.0156115005 0.032747056
-0.0265632 0.03860323 0.0313966 0.035453398 -0.039509963 0.028554814 -0.03245168 0.025808943
0.028091418 -0.022591896 -0.039393764 -0.037526246 -0.04966752 0.0418483 -0.034528285 0.04118426
-0.006849761 0.024992138 0.021716833 0.021405995 -0.011430081 0.006043995 -0.0025325264 0.039799422
0.040217258 -0.036370628 -0.021310939 -0.0071901893 -0.007198447 0.0069776867 -0.0066999444 0.009858928
0.006490185 -0.007327499 0.0077025844 0.033660173 0.009717593 -0.016349906 0.0028162494 0.029274609
0.025721166 -0.037081756 -0.006676931 0.00829398 0.012210879 -0.011607049 0.047516648 0.0004747258
-0.07263783 -0.006776811 0.05111326 -0.002135799 0.0134995 -0.009886335 0.09415344 -0.011550629
0.01953828 -0.0042020096 0.07892505 0.06696935 0.03656023 -0.049502786 -0.06987407 -0.03999392
0.009976508 -0.006648682 0.005046809 0.016380675 0.00600973 -0.010707721 0.006574886 0.016273893
0.020832783 -0.016089631 0.00078930974 0.0036989467 0.0042916806 -0.012029102 0.012779686 6.981359e-05
-0.0458327 -0.0019101023 0.03169556 0.06176773 -0.014418346 0.009290388 0.01486433 0.004731273
0.06687386 -0.0356428 0.00011348057 -0.0068237777 -0.0232978 0.016503409 0.0130857825 0.049614213
0.0059226984 0.012466139 0.019077806 0.022457963 0.009150903 -0.0077535235 0.010356795 0.026397781
0.035690263 -0.03301331 -0.009943808 0.0029479994 0.0073210634 -0.00053676125 0.0062929844 -0.0017261235
-0.014421603 0.033276442 0.03344633 0.041933235 -0.02007525 0.016018167 0.0067523574 0.03290784
0.040341265 -0.041894976 -0.037408166 -0.0033806716 -0.035828017 0.028654505 -0.044991963 0.04072938
-0.034685005 0.058303837 0.055485964 0.03563634 -0.0071863458 0.023305072 0.016326178 0.03410248
0.05243264 -0.031764027 -0.040441107 -0.02023764 -0.037081514 0.05139588 -0.063960135 0.061830167
-0.005037622 0.036490396 0.041788474 0.037289493 -0.005657517 0.006239952 0.00409774 0.053408347
0.061280705 -0.054651447 -0.03939294 -0.010453348 -0.009358245 0.0069284895 -0.00095033 0.01062997
-0.0116276555 0.018994544 0.026793819 0.03697942 -0.0057019535 0.007813002 -0.0014811223 0.023040576
0.03834993 -0.031316627 -0.028185653 -0.017700315 -0.02660769 0.022237359 -0.013590326 0.025406368
00000000: 0efe afbb eecc fe3c d663 e03c 7aa5 e13c
00000010: 33a7 27bc b2c4 f83b 341a 0dbb ef87 183d
00000020: 2e20 1d3d 9fe4 16bd 0974 cdbc 91b6 fabb
00000030: db0b 30bc 28fa 303c 116f f4bb 172c 5e3c
00000040: f682 94bc d7f3 ef3c de1c 143d 7909 423d
00000050: f9d4 883c 1e02 433c d73d 2a3d 747a 383c
00000060: 68a1 d03b c422 91ba 5b35 35bd 826d 39bc
00000070: eaef 8bbd 7910 fc3c 138c 63bd ce75 933d
00000080: b8df 0dbc a09b e43b c04b 733c 69f1 c63c
00000090: 7e04 18bc 3e2b c83b f6cd 99bb ea23 5e3c
000000a0: 88d6 963c da54 2cbc f306 82bc 330d 6abc
000000b0: 5881 81bc cb35 1c3c 1220 10bc cd23 863c
000000c0: 861e deba c0cc 793b 783a 903b 1b8e e03b
000000d0: 5ec3 2dbb f487 043b 7063 0cba a94c 883b
000000e0: 5d7d 9b3b 7665 6ebb 393c 92bb 3fb4 3cbb
000000f0: 2237 75bb b503 263b 0ea4 eaba e854 673b
00000100: c2ee 88bb 828d 083d e362 3c3d 9546 633d
00000110: c8ae 92bc 915e d53c 0bde 63ba 33ce 013d
00000120: 713f f83c 0b5f 31bd d67f 89bd 6dcc ddbc
00000130: 1673 72bd 04f3 2a3d 61c7 7fbc c721 063d
00000140: 119b d9bc 6c1e 1e3d b999 003d 9537 113d
00000150: 33d5 21bd c9eb e93c 0eec 04bd 476d d33c
00000160: f91f e63c a412 b9bc 5b5b 21bd 1fb5 19bd
00000170: 2b70 4bbd 1f69 2b3d 886d 0dbd d4b0 283d
00000180: f673 e0bb 50bc cc3c 80e7 b13c a05b af3c
00000190: 3c45 3bbc b40c c63b bef8 25bb b804 233d
000001a0: daba 243d 5ef9 14bd 4794 aebc ae9b ebbb
000001b0: f3e0 ebbb 14a5 e43b 358b dbbb 5787 213c
000001c0: 9eab d43b 841b f0bb f665 fc3b 40df 093d
000001d0: 8a36 1f3c 3df0 85bc d390 383b 4ed1 ef3c
000001e0: 32b5 d23c 0ae3 17bd 28ca dabb 79e3 073c
000001f0: 2310 483c 7e2b 3ebc d1a0 423d 9ee4 f839
00000200: 25c3 94bd 0310 debb 235c 513d c3f8 0bbb
00000210: 022d 5d3c 4bfa 21bc 85d3 c03d d93e 3dbc
00000220: be0e a03c 03b1 89bb 75a3 a13d 3a27 893d
00000230: 2ec0 153d 6fc3 4abd 231a 8fbd aad0 23bd
00000240: 8274 233c 30dd d9bb b45f a53b c430 863c
00000250: 45ed c43b 706f 2fbc 2472 d73b d450 853c
00000260: 83a9 aa3c 67ce 83bc aee9 4e3a 076a 723b
00000270: 3aa1 8c3b b615 45bc e361 513c e368 9238
00000280: 12bb 3bbd 665c faba 34d3 013d 2900 7d3d
00000290: ed3a 6cbc b636 183c 8589 733c cb08 9b3b
000002a0: 2af5 883d 2ffe 11bd 6bfc ed38 ff99 dfbb
000002b0: 07db bebc 2832 873c c065 563c 4638 4b3d
000002c0: 3213 c23b c73e 4c3c 0f49 9c3c c3f9 b73c
000002d0: abed 153c 4511 febb 8caf 293c 2940 d83c
000002e0: f42f 123d f738 07bd 5beb 22bc 3933 413b
000002f0: 88e5 ef3b 70b5 0cba 6135 ce3b 183f e2ba
00000300: 9648 6cbc e14c 083d 05ff 083d 2fc2 2b3d
00000310: da74 a4bc 8838 833c e142 dd3b 5fca 063d
00000320: e23c 253d 119a 2bbd 4e39 19bd 428e 5dbb
00000330: 66c0 12bd dabc ea3c 7e49 38bd dad3 263d
00000340: dd11 0ebd 01d0 6e3d 4045 633d 69f7 113d
00000350: 707b ebbb 47ea be3c 7abe 853c 0baf 0b3d
00000360: 9cc3 563d ff1a 02bd 93a5 25bd 68c9 a5bc
00000370: c9e2 17bd 7c84 523d 88fd 82bd a141 7d3d
00000380: a312 a5bb f476 153d 642a 2b3d debc 183d
00000390: b162 b9bb 8378 cc3b 5646 863b b6c2 5a3d
000003a0: 7a01 7b3d 32da 5fbd 7e5a 21bd 8544 2bbc
000003b0: 5353 19bc 6208 e33b 911f 79ba 5329 2e3c
000003c0: ec81 3ebc 729a 9b3c b67e db3c bb77 173d
000003d0: 74d7 babb 1b02 003c 3822 c2ba 97bf bc3c
000003e0: d114 1d3d dd45 00bd 99e5 e6bc 4000 91bc
000003f0: 5ff8 d9bc 1f2b b63c f5a9 5ebc 0421 d03c

bias_ih_l1 f4 [48]
0.061971214 0.15480055 0.099086516 0.030396009 0.085479684 0.016523033 0.06000373 0.13516422
0.14675917 0.08796314 0.23162585 0.07675161 0.03760947 0.15482613 0.10569634 0.11310326
-0.028911607 0.14429982 -0.068372585 -0.0114564495 0.029269947 -0.04364668 -0.031507466 -0.057671487
-0.06932835 -0.03282851 -0.033543922 -0.03965574 -0.08580773 -0.06561523 -0.04844912 -0.053327173
0.19817428 -0.15684491 -0.129477 0.09168874 0.21694662 -0.22021528 0.15260862 0.2586761
0.08542 0.101441875 0.08545814 -0.18553571 -0.11291149 -0.054274432 0.18723613 0.11503091
00000000: 87d5 7d3d 0984 1e3e dfed ca3d 0d01 f93c
00000010: f90f af3d 505b 873c 79c6 753d 7d68 0a3e
00000020: 0948 163e 0526 b43d 542f 6d3e f32f 9d3d
00000030: 630c 1a3d be8a 1e3e 5377 d83d afa2 e73d
00000040: 09d8 ecbc 55c3 133e ed06 8cbd d5b3 3bbc
00000050: 87c7 ef3c dcc6 32bd f90d 01bd f038 6cbd
00000060: 06fc 8dbd 3077 06bd 5a65 09bd 0f6e 22bd
00000070: f7bb afbd 4761 86bd 9672 46bd 986d 5abd
00000080: 33ee 4a3e f49b 20be 9e95 04be 4ec7 bb3d
00000090: 4127 5e3e 1d80 61be 6f45 1c3e 3271 843e
000000a0: aef0 ae3d c2c0 cf3d ad04 af3d 13fd 3dbe
000000b0: 243e e7bd de4e 5ebd d4ba 3f3e 5395 eb3d

bias_hh_l1 f4 [48]
0.08057367 0.17533107 0.076215535 0.03046095 0.14690681 0.08478832 0.059169773 0.11800986
-0.0035108104 0.08513908 0.057830967 0.09124907 0.14414597 0.020160884 0.073504604 0.11131462
-0.03226604 -0.07554827 -0.0508796 -0.011456523 0.0971547 -0.049749594 -0.031353284 -0.06856927
-0.07521464 -0.04224455 -0.15797356 -0.037526555 -0.08704662 -0.05562508 -0.046516582 -0.049023863
-0.09244394 -0.014262645 0.032925688 0.11762062 -0.2107838 0.16607358 -0.039743327 0.22535706
-0.044867035 -0.17151976 -0.15226531 0.19673546 -0.063956976 0.1575885 -0.14077176 0.0007759559
00000000: cf03 a53d fd89 333e e416 9c3d 3e89 f93c
00000010: bd6e 163e 80a5 ad3d 015c 723d 27af f13d
00000020: a015 66bb 665d ae3d 2ae0 6c3d cbe0 ba3d
00000030: 009b 133e 7028 a53c 9589 963d ebf8 e33d
00000040: 6529 04bd 0db9 9abd 2167 50bd 24b4 3bbc
00000050: 0bf9 c63d 3bc6 4bbd 4d6c 00bd 0c6e 8cbd
00000060: 220a 9abd 9f08 2dbd d2c3 21be 72b5 19bd
00000070: 8045 b2bd 20d7 63bd 2c88 3ebd 3fcd 48bd
00000080: 4053 bdbd dead 69bc 16dd 063d 14e3 f03d
00000090: b5d7 57be 310f 2a3e e6c9 22bd 00c4 663e
000000a0: 7fc6 37bd e0a2 2fbe 70eb 1bbe 0575 493e
000000b0: e0fb 82bd e15e 213e 7926 10be 8569 4b3a

weight_ih_l0 f4 [48, 256]
0.010006055 -0.005436393 0.008394187 -0.007353777 0.009068489 0.011818992 0.029962538 -0.032054752
0.007120348 0.022339309 0.015900502 0.07435139 0.00031388376 0.0003985865 -0.007894361 -0.0054855915
0.01954591 -0.011146154 -0.017131632 0.0031289011 0.014322152 -0.0022573315 0.004114511 -0.0023510861
-0.007733935 -0.01625422 0.0074939737 0.006363307 -0.0036348037 0.0111766765 0.005971403 -0.004852773
0.0020011899 -0.008320712 0.0042685913 -0.014347821 0.007829078 -0.015520549 -0.023374258 0.002635745
0.007966404 0.0132009415 -0.0028085052 -0.012134801 0.0042022355 0.016050268 0.021816783 -0.0017825366
-0.0049713952 0.001030631 0.009344601 0.00299852 0.0012044333 0.005688191 -0.021337874 0.021299535
0.021157622 -0.013705113 0.0050853877 0.008935 -0.004747368 0.0005499589 -0.005187919 0.0028528022
0.012257342 0.008220076 0.008104344 -0.006417608 0.009538628 0.0040390105 0.013268609 -0.016204393
0.010605064 0.0145387305 0.010454617 0.006539564 0.0031992076 0.0026363363 -0.00215309 0.0016514878
0.011210035 0.0017553156 0.0046640364 0.008894123 0.0029186755 0.0014508318 0.0073334826 0.0057623293
-0.0016548362 -0.02063644 0.009161651 0.0109847 0.0061606774 0.0079289805 0.00070493267 0.010548736
-0.002334764 0.0040387185 0.0082013635 -0.0023473294 -0.0046004984 -0.00809804 0.0031099776 0.0006426369
0.0028494908 0.005417088 -0.00034532137 0.0014666532 -0.002532735 -0.0029470895 0.008401306 0.001835366
-0.0084079625 0.006222871 0.0072503244 0.0068381657 -0.0010768542 0.0062167295 0.0008221939 -0.00010972368
0.004548077 -0.012278477 0.009198686 0.0062553575 -0.014926258 -0.004224398 -0.017871065 0.0034746306
0.017388279 -0.0071401424 0.006703059 -0.0020693326 0.0024053534 0.0006283338 0.008483822 -0.042939186
0.011037603 0.0022364638 0.0057365587 0.0026874593 0.01499258 0.009407189 0.004089335 -0.0032455174
0.01640412 -0.0009000242 0.0044288673 0.0023704185 0.0066755274 0.0074546603 0.010375871 0.0030784688
0.0036305725 -0.032460846 0.004258846 0.0045490856 0.00324975 0.0015091281 -0.00095671875 0.014480217
-0.0010491671 0.0019669717 0.003754456 -0.013396107 -0.0033626265 -0.00891319 0.007107985 0.010025255
0.004058824 0.0054753534 0.0046514724 0.003491697 0.0019319638 -0.0028985853 0.0028114761 0.0022111572
-0.00561346 0.00775897 0.007982494 0.0056329565 -0.00029968965 0.0046096835 0.0013455852 -0.0020985492
0.0031611423 -0.013726949 0.0035048649 0.012883318 -0.011069829 0.0016608116 -0.011957435 0.0065054502
0.007763015 6.741823e-05 0.010244313 0.00053412735 0.0033696983 0.0017203357 0.0055723293 -0.008012089
0.010901324 0.009855142 0.009762083 0.003739441 -0.00054439576 0.0038572797 0.0065893605 -0.0037856689
0.0069967783 0.004832538 -0.0002209052 0.005638903 0.00598926 0.0030487415 0.004209073 0.007050395
-0.0004466637 -0.020588515 0.008139137 0.0079856785 0.0061509456 -0.00052573683 0.0062226183 0.0018286209
-0.0073717246 0.0011004907 0.009932845 -0.0076937624 -0.002591931 -0.0022927923 0.0003150656 0.0030876976
0.0052143247 0.005419304 -0.0010619498 0.00911165 -0.0009003094 -0.013646192 0.0040721367 0.004507534
-0.013977493 0.008383278 -0.005338361 0.009281412 0.002691286 0.013607551 0.001474578 0.0019745016
0.003921627 -0.0044871448 0.006251694 0.0061328183 -0.01811353 0.006118382 -0.0077435663 -0.01097412
00000000: 70f0 233c c523 b2bb c687 093c f4f7 f0bb
00000010: 0094 143c 72a4 413c ff73 f53c d84b 03bd
00000020: cf51 e93b ed00 b73c c541 823c 8b45 983d
00000030: c490 a439 60f9 d039 5a57 01bc 7ac0 b3bb
00000040: bf1e a03c 5c9e 36bc a357 8cbc 400e 4d3b
00000050: 76a7 6a3c bdef 13bb 05d3 863b ae14 1abb
00000060: f36c fdbb 9227 85bc 0290 f53b 4a83 d03b
00000070: e335 6ebb 611e 373c c2ab c33b 0304 9fbb
00000080: 6526 033b 9853 08bc 8adf 8b3b 1f13 6bbc
00000090: 8845 003c e749 7ebc 5f7b bfbc 77bc 2c3b
000000a0: 8585 023c c348 583c e60e 38bb 0bd1 46bc
000000b0: e8b2 893b da7b 833c 1cb9 b23c 01a4 e9ba
000000c0: 16e7 a2bb 3d16 873a 191a 193c d182 443b
000000d0: 13de 9d3a 0164 ba3b c4cc aebc 5d7c ae3c
000000e0: c052 ad3c 698b 60bc 53a3 a63b 1b64 123c
000000f0: cf8f 9bbb 1e2b 103a 6bff a9bb 14f6 3a3b
00000100: 05d3 483c 7fad 063c 15c8 043c cc4a d2bb
00000110: e847 1c3c ad59 843b 9464 593c 13bf 84bc
00000120: ddc0 2d3c db33 6e3c d849 2b3c d749 d63b
00000130: cca9 513b 62c6 2c3b db1a 0dbb bc76 d83a
00000140: 4baa 373c 9e12 e63a c6d4 983b a8b8 113c
00000150: 4047 3f3b d629 be3a b64d f03b ecd1 bc3b
00000160: 17e7 d8ba c00d a9bc c01a 163c 2cf9 333c
00000170: 82df c93b 8ee8 013c 3bcb 383a 9bd4 2c3c
00000180: d702 19bb 3a57 843b 035f 063c a7d5 19bb
00000190: c7bf 96bb a4ad 04bc c4d0 4b3b a276 283a
000001a0: 86be 3a3b d481 b13b 400c b5b9 b73c c03a
000001b0: 3efc 25bb f523 41bb a2a5 093c aa90 f03a
000001c0: 8dc1 09bc 3ae9 cb3b 2194 ed3b b112 e03b
000001d0: 3b25 8dba b5b5 cb3b 8088 573a 741b e6b8
000001e0: 0908 953b aa2b 49bc 16b6 163c bef9 cc3b
000001f0: 438d 74bc d26c 8abb 5766 92bc a1b6 633b
00000200: dd71 8e3c dbf7 e9bb 56a5 db3b a49d 07bb
00000210: 22a3 1d3b c4b6 243a bbff 0a3c 00e1 2fbd
00000220: 10d7 343c a391 123b bef9 bb3b 1620 303b
00000230: 70a3 753c 9c20 1a3c d4ff 853b bfb2 54bb
00000240: ef61 863c 9aef 6bba 0820 913b 0659 1b3b
00000250: 62be da3b 3946 f43b 8fff 293c 23c0 493b
00000260: e6ee 6d3b aaf5 04bd ca8d 8b3b 7f10 953b
00000270: c2f9 543b f0cd c53a 4fcc 7aba 6f3e 6d3c
00000280: 3584 89ba 4fe8 003b 520d 763b 587b 5bbc
00000290: 835f 5cbb a108 12bc 1aea e83b f840 243c
000002a0: e2ff 843b 986a b33b 616b 983b f4d4 643b
000002b0: f339 fd3a 31f6 3dbb be40 383b 10e9 103b
000002c0: 1ef1 b7bb f53e fe3b 02c9 023c aa94 b83b
000002d0: aa1f 9db9 d40c 973b 595e b03a d087 09bb
000002e0: 2b2b 4f3b ffe6 60bc e0b1 653b 8d14 533c
000002f0: 3a5e 35bc 97af d93a 1ee9 43bc ac2b d53b
00000300: e460 fe3b e362 8d38 c3d7 273c ae04 0c3a
00000310: 28d6 5c3b e37c e13a 1698 b63b 2345 03bc
00000320: 789b 323c 7677 213c 25f1 1f3c 6911 753b
00000330: c8b5 0eba 6aca 7c3b 90eb d73b fc18 78bb
00000340: 3b45 e53b 445a 9e3b caa2 67b9 8cc6 b83b
00000350: 8e41 c43b 65cd 473b 43ec 893b 0007 e73b
00000360: 302e eab9 3fa9 a8bc 045a 053c 5dd6 023c
00000370: df8d c93b 9ad1 09ba 1be7 cb3b 56ae ef3a
00000380: 828e f1bb 573e 903a 5fbd 223c f51b fcbb
00000390: 63dd 29bb ac42 16bb 642f a539 f85a 4a3b
000003a0: eddc aa3b 6b94 b13b 1f31 8bba 0849 153c
000003b0: be02 6cba 4794 5fbc 8f6f 853b f0b3 933b
000003c0: db01 65bc 045a 093c 6bed aebb 1011 183c
000003d0: 4960 303b 35f2 5e3c a146 c13a a466 013b
000003e0: fe80 803b e608 93bb 03db cc3b cff5 c83b
000003f0: d362 94bc b57c c83b bebd fdbb cccc 33bc

weight_hh_l0 f4 [48, 16]
-0.013676979 -0.0058958316 0.0032137271 -0.013730466 0.017971486 0.010703542 0.0025142415 -0.011206628
-0.016478335 0.01762129 -0.0044662566 0.012100703 -0.0055436455 -0.0028140207 0.02760961 -0.0051818434
0.0021721374 0.02912552 0.033382833 -0.00762851 -0.031876173 0.008222103 0.04226996 0.01226694
-0.045995653 -0.029780203 -0.022186354 0.0048657577 0.0036995786 -0.022871621 0.05618481 0.01504859
0.0013759531 0.0143927885 -0.0751647 -0.018396134 -0.058311086 0.050410215 -0.010178992 -0.027466264
0.07398697 -0.040253103 -0.008196649 0.020706719 -0.062433183 -0.02481177 -0.0031555814 -0.071682826
0.0011058142 0.005933893 0.031503603 -0.016268566 -0.0015580709 0.035111 0.026462818 -0.02406783
-0.004670026 -0.025997613 0.003196003 0.0187016 0.0011556456 -0.020911135 -0.0015857124 0.0040732343
0.00022498082 0.008146831 0.007871907 -0.0019615726 0.013993998 0.03868373 0.0074050287 -0.01614452
-0.0040313816 -0.01254309 -0.007504198 0.023489611 -0.012848498 -0.013345924 0.018022731 -0.026715294
-0.04823906 -0.0029253433 0.017694075 -0.017746044 0.03473446 0.032501407 0.033143535 -0.0077012028
-0.01655111 -0.0044329627 -0.004311706 -0.019817788 -0.0077789305 0.017988894 0.012600668 -0.032374997
-0.00033195468 0.005495698 0.01579429 -0.007607315 -0.006946386 0.014268406 0.015900446 -0.008776632
-0.010837273 -0.007422768 -0.011311865 0.009955836 -0.0013313363 -0.012310539 0.01607904 -0.0024764943
-0.015813986 0.061840773 0.051977288 -0.017102776 -0.028267555 0.023891214 0.054169063 0.045242053
-0.03717404 -0.039279927 -0.017459635 -0.02773343 0.024644582 0.03691087 0.023068735 -0.027449407
0.017321724 0.02238145 0.025057575 -0.013770848 -0.024841618 0.025710387 0.036183838 -0.017822709
-0.005560283 -0.024607118 -0.021926044 0.029190533 -0.0033065486 -0.033341445 0.024878304 0.0014067802
0.00888005 0.039172325 0.01826476 0.0018373746 -0.025046209 0.010268237 0.024457425 0.018212987
-0.0010921193 -0.031291574 -0.009492632 0.005129173 0.006747518 0.0017605617 -0.0013018351 -0.010640506
0.0142518645 0.016701253 0.0058568516 0.018078549 -0.014766402 0.01706487 0.028054789 0.0053121843
0.01767348 -0.037660304 0.011005706 -0.0014722227 0.01541698 0.012569922 -0.036786135 -0.031862877
-0.051105358 0.05518377 0.08496269 -0.024047071 -0.009402628 0.034676243 0.076597534 0.033276685
-0.057193484 -0.06750196 -0.02691801 -0.036634568 0.03541598 0.020819718 0.075511 -0.029572487
-0.023552934 0.031089053 0.048306696 -0.023868768 -0.016834341 0.04136849 0.04404423 0.0129794255
-0.02330761 -0.040904764 -0.03233533 -0.037715726 0.018254744 0.011259365 0.047229804 -0.04505219
-0.0024017948 0.042077623 0.034468092 -0.046361696 -0.023506775 0.0220878 0.011969674 -0.008749945
-0.005006049 -0.02855538 -0.027807856 0.069719054 -0.0015773928 -0.05318995 0.06403142 0.024233036
0.00811519 0.023941925 0.038316853 -0.007661138 -0.012307944 0.040023047 0.045508377 -0.026723169
-0.0019884247 -0.029419214 0.0046586245 0.04040531 0.007513438 -0.02976808 0.0006871784 -0.017903259
0.0045387144 0.019462217 0.03960983 -0.01243634 -0.020361781 0.002333331 0.037784 -0.01294301
-0.034909863 -0.029226061 -0.016831784 0.0218568 0.006779023 -0.027137715 0.042237893 0.016580835
00000000: 6815 60bc d231 c1bb 659d 523b c0f5 60bc
00000010: f038 933c e95d 2f3c f9c5 243b 019c 37bc
00000020: 93fd 86bc 865a 903c ad59 92bb 0742 463c
00000030: 78a7 b5bb 6f6b 38bb 8d2d e23c 74cc a9bb
00000040: 6b5a 0e3b a498 ee3c 70bc 083d 94f8 f9bb
00000050: 9790 02bd 00b6 063c 4423 2d3d 47fb 483c
00000060: f065 3cbd 9df5 f3bc 28c0 b5bc ef70 9f3b
00000070: a174 723b 445d bbbc 0b22 663d 5c8e 763c
00000080: 5359 b43a bbcf 6b3c f3ef 99bd 7db3 96bc
00000090: 9bd7 6ebd f17a 4e3d c9c5 26bc ee00 e1bc
000000a0: 7b86 973d 70e0 24bd 3d4b 06bc 23a1 a93c
000000b0: f0b9 7fbd 0e42 cbbc dfcd 4ebb 72ce 92bd
000000c0: f8f0 903a 1a71 c23b ec09 013d a845 85bc
000000d0: 2f38 ccba 8dd0 0f3d 8dc8 d83c e629 c5bc
000000e0: 0407 99bb f2f8 d4bc 0874 513b 1934 993c
000000f0: 0879 973a d44d abbc aed7 cfba c478 853b
00000100: d4e8 6b39 497a 053c 2cf9 003c ba8d 00bb
00000110: 1547 653c d572 1e3d e2a5 f23b 8341 84bc
00000120: ae19 84bb 8881 4dbc c6e5 f5bb 496d c03c
00000130: 8282 52bc dda8 5abc 68a4 933c 08da dabc
00000140: 5296 45bd 1eb7 3fbb 2af3 903c 2760 91bc
00000150: b945 0e3d 3220 053d 84c1 073d 5f5a fcbb
00000160: 3296 87bc 6342 91bb 3649 8dbb ea58 a2bc
00000170: 66e6 febb 725d 933c 0873 4e3c a59b 04bd
00000180: 340a aeb9 4215 b43b 0763 813c c946 f9bb
00000190: 829e e3bb 08c6 693c a741 823c ddcb 0fbc
000001a0: d18e 31bc b13a f3bb 6755 39bc ce1d 233c
000001b0: 3c80 aeba 25b2 49bc 31b8 833c ae4c 22bb
000001c0: 558c 81bc c04c 7d3d 23e6 543d 1f1b 8cbc
000001d0: 5c91 e7bc 82b7 c33c 61e0 5d3d bb4f 393d
000001e0: ce43 18bd fde3 20bd 8207 8fbc 3831 e3bc
000001f0: 6fe3 c93c da2f 173d a5fa bc3c 94dd e0bc
00000200: 4ae6 8d3c 4d59 b73c 8b45 cd3c 1f9f 61bc
00000210: a680 cbbc 979e d23c 8135 143d ee00 92bc
00000220: 0933 b6bb de94 c9bc 3f9e b3bc fc20 ef3c
00000230: aeb2 58bb 0a91 08bd 96cd cb3c b663 b83a
00000240: a17d 113c 2973 203d fa9f 953c 10d4 f03a
00000250: b52d cdbc 1c3c 283c f05a c83c 6733 953c
00000260: 7125 8fba 982b 00bd fc86 1bbc 9f12 a83b
00000270: 491a dd3b a6c2 e63a 56a2 aaba 8455 2ebc
00000280: a780 693c 11d1 883c d5ea bf3b 7719 943c
00000290: c7ee 71bc a0cb 8b3c 28d3 e53c d511 ae3b
000002a0: f9c7 903c b141 1abd 4751 343c 99f7 c0ba
000002b0: 8097 7c3c 13f2 4d3c 0fad 16bd a682 02bd
000002c0: da53 51bd 6008 623d eb00 ae3d 5dfe c4bc
000002d0: 7b0d 1abc ad08 0e3d 2bdf 9c3d 224d 083d
000002e0: b743 6abd 783e 8abd 2983 dcbc 210e 16bd
000002f0: 5910 113d 1d8e aa3c 83a5 9a3d 0042 f2bc
00000300: 15f2 c0bc 78ae fe3c 3edd 453d 6f88 c3bc
00000310: 2ce8 89bc 0172 293d b967 343d a8a7 543c
00000320: 9aef bebc c18b 27bd 0d72 04bd ce7b 1abd
00000330: f98a 953c 3379 383c 0a74 413d a588 38bd
00000340: 6e67 1dbb 9659 2c3d 6a2e 0d3d c3e5 3dbd
00000350: 4891 c0bc 79f1 b43c 741c 443c ee5b 0fbc
00000360: c809 a4bb f9ec e9bc 4dcd e3bc ddc8 8e3d
00000370: 85c0 ceba b4dd 59bd e822 833d 5c84 c63c
00000380: 93f5 043c db21 c43c 22f2 1c3d 490a fbbb
00000390: 42a7 49bc 35ef 233d fe66 3a3d 8cea dabc
000003a0: 3b50 02bb 9000 f1bc 60a7 983b 0a80 253d
000003b0: 4933 f63b 30dc f3bc c323 343a dba9 92bc
000003c0: 7fb9 943b 3a6f 9f3c eb3d 223d cac1 4bbc
000003d0: c0cd a6bc ccea 183b 65c3 1a3d eb0e 54bc
000003e0: a5fd 0ebd 7e6b efbc cfe2 89bc 080d b33c
000003f0: 9122 de3b ea4f debc a401 2d3d 88d4 873c

bias_ih_l0 f4 [48]
0.015056564 0.053305056 0.068016596 0.04080567 0.027656252 0.023459906 0.024316162 -0.025774216
0.05285314 0.038389705 0.024790706 0.08077194 0.047267303 0.09059513 0.06014183 0.04789152
0.16535577 0.039031398 0.02743883 -0.0514361 0.03405249 0.08504846 0.07176372 -0.028538905
0.23413385 -0.010518251 0.00844794 -0.017727505 0.07270786 0.10980415 0.14657979 0.015484481
0.013601447 -0.03365337 0.020556262 -0.03159397 -0.1266334 0.05905653 0.123574644 0.107873924
0.13435788 -0.17614517 0.05644211 -0.16584907 -0.18783009 0.006418798 0.00094427523 -0.13996921
00000000: ceaf 763c 6756 5a3d 494c 8b3d d923 273d
00000010: 5d8f e23c fd2e c03c b032 c73c 7324 d3bc
00000020: 897c 583d 863e 1d3d e115 cb3c c26b a53d
00000030: 5c9b 413d f189 b93d 4857 763d e629 443d
00000040: 0653 293e 63df 1f3d 66c7 e03c a9ae 52bd
00000050: a07a 0b3d e32d ae3d dbf8 923d 6cca e9bc
00000060: c9c0 6f3e be54 2cbc 3b69 0a3c 4639 91bc
00000070: dce7 943d 00e1 e03d 0319 163e 9fb2 7d3c
00000080: 9bd8 5e3c 1ed8 09bd 9b65 a83c ae68 01bd
00000090: 30ac 01be 43e5 713d b414 fd3d 01ed dc3d
000000a0: 1d95 093e 665f 34be d82f 673d 57d4 29be
000000b0: 8856 40be c854 d23b 3d89 773a 1754 0fbe

bias_hh_l0 f4 [48]
-0.014297707 0.041680396 -0.017635485 0.01922903 0.039086666 0.043206904 0.024316147 0.08712085
0.05422377 0.028624993 0.03232174 0.07532028 0.086210735 0.10778474 0.0681257 0.038199987
0.026196616 0.14634289 -0.13441607 -0.024687981 -0.011480216 0.058222625 -0.0305932 -0.011888272
0.08773724 -0.037314657 0.0058744187 -0.053261474 0.10099286 -0.044642244 0.18338752 0.12546912
-0.13555174 0.022729399 -0.15119046 0.072009034 0.15134618 0.03379718 0.0037232172 0.115414955
0.16076735 -0.18225344 0.08397517 0.022967592 0.16835958 -0.22789069 -0.060362805 -0.015693331
00000000: ee40 6abc 10b9 2a3d 4b78 90bc 3386 9d3c
00000010: 5719 203d b9f9 303d a832 c73c 6b6c b23d
00000020: be19 5e3d f67e ea3c cd63 043d 8541 9a3d
00000030: 418f b03d 3fbe dc3d 7d85 8b3d 9777 1c3d
00000040: 499a d63c e9da 153e 5ea4 09be 733e cabc
00000050: 8417 3cbc d97a 6e3d 979e fabc 07c7 42bc
00000060: 95af b33d 41d7 18bd 327e c03b b428 5abd
00000070: 58d5 ce3d c9da 36bd f0c9 3b3e fa7a 003e
00000080: 13ce 0abe 0133 ba3c acd1 1abe 7979 933d
00000090: 7efa 1a3e e96e 0a3d 3801 743b ad5e ec3d
000000a0: 32a0 243e a5a0 3abe 2dfb ab3d 8826 bc3c
000000b0: 7466 2c3e 2d5c 69be fd3e 77bd 4d8f 80bc
