app/src/main/assets/model.pt (torch, 917943 bytes, 16 tensors)

weight_ih_l0 f4 [48, 256]
00000000: 2278 68b9 573a 7639 06f8 8e39 8291 3a38
00000010: 9344 423a 4a53 393a 3961 613a 1873 323a
00000020: d7e0 8039 0603 5639 0ad2 a3b7 e386 9339
00000030: ff36 9d3a 3637 1ab9 1279 b23a 21da b738
00000040: 0b21 073a c5a9 5f3a c778 923a 9e34 453a
00000050: a1c8 b339 5cac 1e3a ff8a 843a 03e7 6d3a
00000060: 0a9c 02b9 b3b3 113a c79b 163a 2894 cb39
00000070: 67f4 543a 3ffd 313a 4ef1 fb39 691a 673a
00000080: 5206 ccb9 9835 f138 c87d 213a fc70 dd39
00000090: f33b 2039 cc7e 273a f5d7 583a 6315 153a
000000a0: 8375 853a 753a 803a e72e cdb9 72d2 9e3a
000000b0: c508 cd39 3e3f 9c3a 135b 36b9 a8a6 a73a
000000c0: d0fd e7b9 4211 263a 39f7 99b6 3721 e539
000000d0: 2d65 5039 a6b7 5f3a 6766 f839 db74 d839
000000e0: d7f1 c539 472e 8639 d83c 05b9 49d6 e139
000000f0: 3a44 0a3a 57f3 ac39 f5d6 043a 59d2 ae3a
00000100: afbd 8cb9 7307 bf39 006a 6639 09a1 9339
00000110: 6d5f 5a3a e06d 3b3a 3e3b 493a 1468 d339
00000120: 128b 8bb5 f326 9539 d904 5d37 682a 1339
00000130: ed5f 9d3a 2082 26b9 8033 8c3a c911 e3b8
00000140: 6c2e 6839 f0b5 6a3a 483c 933a a086 183a
00000150: 1626 283a de24 103a 8b5d 833a 0104 393a
00000160: 64f0 7eb9 85f1 193a 0e45 573a c4fa 4839
00000170: f5c4 6c3a fec0 c839 0c5e ec39 7ffb 3f3a
00000180: 6ad3 25ba 27d6 fd37 9d2a c639 66a4 f639
00000190: 57c0 1c39 91a5 0a3a 839c 603a cdfd b439
000001a0: 3f62 663a dd07 333a 5f28 4bb9 52f2 833a
000001b0: 5ee8 c639 2131 8d3a 18ca 82b9 181f 9c3a
000001c0: dce9 1dba fc19 333a d656 a038 0d1c ac39
000001d0: 7104 1539 59c6 4e3a 054f b939 8291 c939
000001e0: b5a6 c839 1b5e e239 0266 72b8 e8a8 ea39
000001f0: 9e27 3b3a cc2b 3d39 de5c 043a fa13 643a
00000200: bb5d 1bb9 1da0 0a3a 1f39 0739 b006 8839
00000210: 1084 633a b05c 293a 4d6e 3b3a 4958 f339
00000220: d119 0bb8 1b71 253a 6240 9038 c148 4839
00000230: 38c7 9c3a 7290 17b9 8ba8 6f3a 8db1 93b9
00000240: a6be 4239 b42d 5e3a 9d2a 933a 97e1 203a
00000250: 1906 0e3a 06fb f339 3e8e 203a f700 3d3a
00000260: 9a15 5eb9 21c9 333a 1bf8 703a 3ee2 2339
00000270: ed1e 9c3a 33b7 ab39 edca 043a 77cc 243a
00000280: 0413 48ba 1aba 1a38 d92e ca39 eb21 eb39
00000290: c267 2039 2012 123a b7dd 743a 8689 4d39
000002a0: b93c 163a c9a4 093a 572f 05b9 1502 573a
000002b0: e065 9f39 2814 723a 3fe3 6fb9 feee a03a
000002c0: 7e46 1fba cc3e b339 da10 a739 59f3 b338
000002d0: 0099 1c39 4db8 333a c4df ae39 9fa5 ae39
000002e0: b02b 8f39 63be 0f3a a023 4339 d8f8 f239
000002f0: 7ef0 6b3a 04f9 a738 1d83 093a 2eaf 6a3a
00000300: 59e1 22b9 b181 1b3a 79fb 0539 561a 3db7
00000310: e863 563a aecf 403a cad4 693a a941 3c3a
00000320: 406e 11b8 15b1 1b3a 8328 deb8 8d54 ce39
00000330: 84f5 803a 1566 81b8 6b1d 873a 1732 1cba
00000340: 79d3 d439 2603 3a3a cfcf 823a 7cb2 323a
00000350: 3bc3 153a 3295 d239 e5da 253a 6fbb 553a
00000360: 9182 dab8 9232 453a 180a 663a c49f 2f39
00000370: f972 a43a 45a4 d439 26ef 253a d1d0 183a
00000380: 75cd 80ba 538c 9b38 218a b539 0510 f639
00000390: 6724 d137 305f 083a d88c 533a c938 b239
000003a0: c37d ed39 1a02 d439 0cbd 32b9 da81 763a
000003b0: 1a2b 1b39 7f89 5d3a 2629 93b9 7530 a43a
000003c0: ce50 e3b9 acbd 133a a416 8b39 9eee 43b8
000003d0: 04b2 3539 9e44 473a 7683 17b9 8dd1 6038
000003e0: ba63 a139 ffa1 373a c072 fc39 f473 b939
000003f0: 7c88 873a 828c 9bb8 a5ee e639 c944 653a
-0.00022169997 0.00023482121 0.00027269142 4.448137e-05 0.0007410731 0.0007069601 0.0008597556 0.00068073114
0.0002458158 0.00020409757 -1.9528921e-05 0.00028138523 0.001199454 -0.00014707152 0.0013616404 8.76675e-05
0.0005154765 0.00085320725 0.001117491 0.0007522794 0.0003429102 0.0006052905 0.0010112225 0.0009075256
-0.00012455895 0.00055580883 0.00057452585 0.00038829562 0.0008123577 0.0006789751 0.00048054237 0.0008815886
-0.0003891462 0.00011501758 0.00061604055 0.00042236585 0.00015281122 0.00063894386 0.0008271926 0.0005687086
0.0010182116 0.0009783047 -0.00039135592 0.0012117161 0.0003910718 0.0011920703 -0.000173908 0.0012790756
-0.00044248858 0.0006334969 -4.588536e-06 0.0004370303 0.00019874117 0.00085341407 0.00047378542 0.00041285795
0.00037754953 0.0002559295 -0.00012706534 0.00043075 0.0005274449 0.000329877 0.00050674315 0.0013337835
-0.00026844206 0.0003643591 0.00021973997 0.00028158005 0.00083302596 0.00071498565 0.0007676369 0.000403226
-1.0396782e-06 0.00028448514 1.3173755e-05 0.0001403481 0.0012006738 -0.00015879469 0.00106965 -0.00010827516
0.00022142538 0.00089535024 0.0011233175 0.00058184005 0.00064143667 0.00054986577 0.0010022385 0.00070577866
-0.0002431288 0.0005872476 0.0008211889 0.00019166904 0.00090320344 0.00038290763 0.00045083498 0.00073235476
-0.00063257536 3.0259673e-05 0.00037797252 0.00047043263 0.00014948972 0.00052889535 0.0008568244 0.00034521372
0.00087884435 0.000682948 -0.00019374628 0.0010066724 0.0003793863 0.0010772088 -0.00024946104 0.0011911122
-0.00060239225 0.000683218 7.645569e-05 0.00032827296 0.00014211402 0.00078878325 0.00035344824 0.0003844612
0.0003827118 0.00043176193 -5.77923e-05 0.00044757803 0.00071393873 0.0001804076 0.00050492387 0.00087004865
-0.00014816869 0.0005288141 0.00012895883 0.00025944924 0.00086790416 0.000646065 0.000714992 0.0004641435
-3.3164226e-05 0.00063111045 6.878447e-05 0.00019100589 0.0011961227 -0.00014454292 0.00091422413 -0.0002817031
0.00018572304 0.0008475438 0.001122791 0.0006137131 0.0005417779 0.000465356 0.00061247114 0.00072099216
-0.00021179617 0.00068582786 0.0009192244 0.00015629173 0.0011911072 0.00032752156 0.00050656387 0.0006286571
-0.0007632228 3.688978e-05 0.00038563347 0.00044847964 0.00015297442 0.0005572159 0.00093408994 0.00019601555
0.0005731094 0.000525069 -0.00012701504 0.00082019094 0.00030402746 0.0009234571 -0.00022877472 0.0012278256
-0.0006075873 0.00034188328 0.00031865278 8.580712e-05 0.00014934316 0.0006855771 0.00033354585 0.00033311264
0.00027307635 0.0005483387 0.0001860992 0.0004634324 0.00090003747 8.009563e-05 0.00052456727 0.00089524954
-0.00015533472 0.0005932106 0.0001277755 -1.127141e-05 0.00081783393 0.00073551654 0.00089199527 0.0007181415
-3.4673372e-05 0.0005939168 -0.00010593331 0.00039354377 0.0009838794 -6.1702136e-05 0.001030845 -0.00059583917
0.0004059335 0.0007095806 0.0009980145 0.00068167574 0.00057129905 0.0004016548 0.00063268683 0.0008153235
-0.0001041937 0.0007522489 0.0008775308 0.00016748818 0.0012546472 0.0004055818 0.00063298864 0.0005829456
-0.0009826856 7.4171134e-05 0.00034625924 0.00046932712 2.4931693e-05 0.00052021723 0.00080699986 0.00033993114
0.00045297862 0.00040437357 -0.00017045828 0.00094035047 0.00014798008 0.00084509695 -0.00028068683 0.0012526648
-0.00043357018 0.00056358683 0.00026529015 -4.6713852e-05 0.00017327821 0.00076014723 -0.00014449455 5.360092e-05
0.00030782615 0.00070050353 0.0004815068 0.00035372342 0.0010340358 -7.4171476e-05 0.00044046823 0.00087459065

weight_hh_l0 f4 [48, 16]
00000000: 0d9c 4db8 170a 3c3a cb33 87ba 08ad 0038
00000010: 5553 d53a 3a48 8739 6d9b 563a 7264 92b8
00000020: 3cab 6a38 a529 ca3a cc43 ca3a 2542 7ab9
00000030: 0519 a7b9 c06a 393a 1f40 3539 99b9 40b8
00000040: 3a7f 83ba fed7 8d3a 679e 9138 9006 1fbb
00000050: 5645 6d3b 1d75 053b bac6 343b 6993 86ba
00000060: fe01 163b a730 b23a 5d07 433b 0898 7c3a
00000070: 00a0 c6ba be69 843a eb3f d2ba 77cd adba
00000080: ffc2 10bc 70d2 49bb aaa0 1bba 05a1 8bbc
00000090: 1e04 cb3c 1f30 e93b cb9c b33b 34c7 153c
000000a0: 29ff 31ba 1e9e 5f3c 7342 923c c5dd 08bb
000000b0: a409 f639 c24e 9dbb 6f8f 6ebc ce03 c0b9
000000c0: 64bc 58ba 95a1 a03a eeb3 37bb da49 d9ba
000000d0: 6492 233b 7c13 623b 5c0d 053b f802 72ba
000000e0: f014 c73a b783 173b b347 0b3b 86ce 143a
000000f0: 738b 6239 258c af3a 5f5e e0ba 9596 feba
00000100: 90ad 83ba 4a25 24ba 8a10 08bb ab05 4bba
00000110: 5e7a 133b e8c7 193a 992f 263a 1907 913a
00000120: 7b6b 26ba 8878 de3a 6573 d13a aed6 87b9
00000130: 1e1d bf39 3040 1fba 1d8d 69ba 1aa3 3739
00000140: 16aa 4bbb 5b69 d4ba 8b9f ddba 45de 90bb
00000150: 92d3 083c 5480 3d3b 9df0 773b bf49 413b
00000160: bba0 523a 2bc9 6d3b 0dd4 b83b 546b 8f3a
00000170: c119 2bba fd85 0bbb e3dd b1bb 5e68 2f38
00000180: 66cb 72bb 4c63 373b d171 84bb cd3b 3ebc
00000190: d93c 953c bdc5 153c b34c e43b 9a3c 57ba
000001a0: d86d e9b9 87a0 303c 005d 573c 3878 3bbb
000001b0: 780d c23a 756c 023b df5f d9bb ed6d c7bb
000001c0: db06 8cba d70e 393b 7ccf 8739 ccc9 94bb
000001d0: 74f2 a83b 15c0 753b 0af3 9e3b 4466 1abb
000001e0: a119 7f3b 6ff1 0d3b 0c5a 933b c260 df3a
000001f0: a829 1fbb f4bd 1f3b 7844 16bb 3290 49bb
00000200: 9770 5abc bfad d4bb 5713 8abc 0a16 8ebc
00000210: 2a0c 0f3d e83c 103c 2bd5 6739 9a20 433c
00000220: 15ca 31bc 8c51 ae3c b87f b63c 56e7 fcbb
00000230: e3ca 563c 2c66 d6bb cf0a 8bbc 672a 933a
00000240: f5a0 02bc 1679 6cbb 20b8 0ebc 6490 b4bb
00000250: a386 773c 5204 523b 4d32 bd3a 3190 f63b
00000260: 74b6 82bb af7f fa3b 71e2 283c 69ac 19bb
00000270: 5c61 803b 70fc aebb 460c 0fbc 1f16 243b
00000280: 49f2 60b9 44c7 7b3a 0f6c f5b9 add1 e3b9
00000290: 197d eb39 d2cf f639 e288 313a d86b 68ba
000002a0: 482d 5b3a 6d13 dd38 f1b1 183a 055b b838
000002b0: 31fa cab9 5e9f 433a 554b c438 9338 22ba
000002c0: 5930 b6bb d3eb 41ba a6c7 b8ba 5e87 0ebc
000002d0: 9a8d 813c 90fa 243b efa4 ee3b 3fc7 853b
000002e0: 3024 72b9 5c19 0a3c fa1f 453c 3824 a2ba
000002f0: dfb6 d8b8 ab0a ddba 8e03 d9bb d593 993a
00000300: 3fea 9cbb a882 29ba 58db d6ba bf54 e2bb
00000310: 790a 6e3c 4772 bb3a abe9 bd3b a788 8d3b
00000320: 2654 c439 26b0 f93b 11ba 2b3c 604e 46ba
00000330: a848 87ba c00a 27bb 686a 7abb 6c69 443b
00000340: e3d5 3eb8 74a4 ba3b ce18 8a39 3e3e bdbb
00000350: 3333 f43b 9a20 c23b 8d6b 183c 2931 b4bb
00000360: 986f ec3b a4dd 813b ba19 ce3b e707 573b
00000370: 48da acbb 018a b83b c486 44ba 293c b7bb
00000380: b0a2 0aba 214a 0839 0a58 86b9 4e26 f6ba
00000390: b15c 473b d9e0 e43a 7f22 273a 2fc5 4739
000003a0: 1030 f1b9 090f f13a e511 0b3b fac9 0aba
000003b0: 0016 8139 87b9 2db9 7fe2 c6ba fcd9 c3b9
000003c0: 79dd c1ba 8259 b639 1009 04ba 801e 08bb
000003d0: c9aa 843b 613c 9a3a 6385 413b e568 db39
000003e0: 4a19 ec3a 9a84 f13a 7a12 5f3b 05fb 963a
000003f0: f2f4 c0ba 1ea1 ad39 c9f1 01bb b612 13ba
-4.9021142e-05 0.00071731344 -0.0010315118 3.0678726e-05 0.0016275445 0.0002580302 0.00081866124 -6.980532e-05
5.5949422e-05 0.0015423788 0.0015431582 -0.00023866499 -0.00031871363 0.0007073097 0.00017285392 -4.594922e-05
-0.0010032423 0.0010821817 6.9436435e-05 -0.0024265386 0.0036204658 0.0020363994 0.002758427 -0.001026732
0.002288937 0.0013594822 0.0029759028 0.00096356915 -0.0015153885 0.0010102314 -0.0016040778 -0.0013260086
-0.008835553 -0.0030795597 -0.00059367216 -0.017044554 0.024782237 0.007116332 0.0054813377 0.009141732
-0.0006790036 0.013648538 0.017853951 -0.0020884138 0.0004692796 -0.0048006484 -0.014560564 -0.00036623928
-0.00082678185 0.0012255186 -0.002803083 -0.0016577796 0.0024959082 0.0034496477 0.0020302152 -0.000923201
0.0015188735 0.002311928 0.0021252453 0.00056765263 0.00021604988 0.0013393207 -0.0017117969 -0.0019423539
-0.0010046232 -0.000626166 -0.0020761811 -0.000774468 0.0022503356 0.0005866275 0.000633949 0.0011064737
-0.00063484133 0.0016973177 0.0015979825 -0.00025909155 0.00036452053 -0.00060749333 -0.0008909272 0.00017513
-0.003107672 -0.0016205715 -0.001690851 -0.004421028 0.008351224 0.00289156 0.0037832626 0.002949342
0.0008034815 0.0036283236 0.005640513 0.001094202 -0.000652697 -0.002128958 -0.0054280623 4.182045e-05
-0.0037047504 0.002798277 -0.0040418883 -0.011610937 0.018217491 0.009141383 0.006967151 -0.00082106295
-0.00044523063 0.01078046 0.0131447315 -0.0028605592 0.0014805039 0.0019901071 -0.006633743 -0.006086102
-0.0010683195 0.0028237605 0.00025903794 -0.0045406576 0.005155856 0.0037498523 0.00485075 -0.002355949
0.0038925188 0.0021658798 0.0044968184 0.0017042386 -0.0024286304 0.0024374695 -0.0022928994 -0.0030756113
-0.013332508 -0.0064904387 -0.016854925 -0.017344493 0.03492371 0.008803584 0.00022109288 0.011909628
-0.010851403 0.021279119 0.022277698 -0.007718007 0.013109895 -0.0065429416 -0.016972927 0.0011227847
-0.007972945 -0.0036082915 -0.008710891 -0.0055103768 0.0151077835 0.0032046032 0.0014434546 0.007524513
-0.0039890353 0.0076446156 0.010307894 -0.0023448712 0.003917856 -0.0053401515 -0.008730954 0.00250376
-0.00021452563 0.0009604583 -0.0004681055 -0.00043453035 0.00044915898 0.00047075615 0.0006772411 -0.00088661676
0.00083609344 0.000105417195 0.0005824855 8.7907574e-05 -0.0003871485 0.0007462407 9.36004e-05 -0.000618824
-0.0055599627 -0.0007397506 -0.0014097586 -0.008699266 0.015814591 0.002517376 0.007282845 0.00408259
-0.000230924 0.008428898 0.01203155 -0.0012370413 -0.00010333745 -0.0016864141 -0.006622738 0.0011717031
-0.0047886665 -0.00064663077 -0.0016392274 -0.006907075 0.014528864 0.0014301025 0.0057956777 0.0043192687
0.0003744673 0.0076198755 0.010481373 -0.00075647794 -0.0010321336 -0.0025488585 -0.0038210396 0.0029970063
-4.5498728e-05 0.005695874 0.00026339892 -0.005775242 0.0074523925 0.0059242966 0.009302986 -0.0054990244
0.0072154514 0.003963189 0.006289688 0.0032811107 -0.0052750446 0.0056316857 -0.0007496888 -0.0055918884
-0.00052885246 0.00012997586 -0.00025624066 -0.0018779726 0.0030420239 0.0017462029 0.0006375685 0.00019051576
-0.0004600291 0.0018391322 0.0021220383 -0.0005294379 0.0002462119 -0.0001656768 -0.0015173702 -0.0003735571
-0.0014790735 0.00034780434 -0.0005036751 -0.0020770133 0.0040486795 0.0011767262 0.0029528968 0.00041849088
0.0018012908 0.0018426359 0.0034038112 0.0011518901 -0.0014721437 0.00033117173 -0.0019827953 -0.0005610393

bias_ih_l0 f4 [48]
00000000: e249 323b 0f9e de3b 508b 2d3d 1af1 bf3b
00000010: 4035 7a3b 72d6 783c 0a1f 0a3d b212 2c3c
00000020: 63d1 6c3d 8542 d13c 8d06 943a 32c8 dd3c
00000030: 7a1c bd3c f9a7 8c3c 956e b53b 335b f13b
00000040: f9ec 7ebb 1ae8 6a3c 165f 2f3d 8163 583c
00000050: 8285 923a 2d80 903d e31e 7c3c 64e8 453c
00000060: d3b4 ffbc d11f 6ebd 2e0f b8bb e0fd b33d
00000070: 37d6 da3d 5ecd 593d 915d df3b 981f ca3c
00000080: 0fde dc3d be1f 313d 553f 943d 64c4 043c
00000090: 87a3 ff3d cb78 323e 1ef2 be3d d73c 4b3c
000000a0: 7e27 553e e7a0 293e 34a9 de3d 51ec 0c3e
000000b0: 004f 103e c24e eabc d63c fab9 7fa0 39be
0.0027204682 0.0067937444 0.042369187 0.005857599 0.0038178712 0.0151878465 0.033721007 0.010502504
0.057816874 0.025544414 0.0011293456 0.027073 0.023084868 0.01716994 0.005536864 0.007365608
-0.003889857 0.014337564 0.04281529 0.013207317 0.0011178704 0.070556976 0.015388223 0.012079332
-0.031214153 -0.05813581 -0.005617044 0.08788657 0.106853895 0.05317437 0.006816574 0.024673268
0.10784542 0.043243162 0.07238642 0.008103464 0.12482362 0.17428891 0.09323524 0.012404642
0.20815846 0.16565286 0.10872117 0.13762023 0.14092636 -0.028602008 -0.00047729042 -0.1812763

bias_hh_l0 f4 [48]
00000000: e249 323b 0f9e de3b 60c0 2d3d d9e6 bf3b
00000010: 4035 7a3b 6ad6 783c ade9 0b3d 1b15 2c3c
00000020: be54 6e3d ca59 d33c 8d06 943a d4ca dd3c
00000030: 791c bd3c 2b0d 8e3c 956e b53b 2f5b f13b
00000040: cfee 7bbb 61e8 833c b8e5 babb 9270 5d3c
00000050: 6ea5 013c 8d2b 8a3d c197 11bd 0469 9d3c
00000060: 3337 a43d 6cef e93c f908 b8bb a89f bb3c
00000070: 3416 8e3d c042 d13c a733 df3b acae 933c
00000080: f9be dabc 3397 7a3c ae88 f13b e418 cbbd
00000090: efce 313d 1eba ee3d bf38 70bc bd7b 95bd
000000a0: c718 40be 7279 b43d 4f18 333d dd22 f5bc
000000b0: 4d63 ab3c f558 fd3d 0af7 a7ba 3723 643c
0.0027204682 0.0067937444 0.04241979 0.0058563766 0.0038178712 0.015187839 0.034158397 0.010503079
0.058186285 0.02579965 0.0011293456 0.027074255 0.023084866 0.017340263 0.005536864 0.0073656063
-0.0038441902 0.016102018 -0.005703654 0.013515608 0.007912977 0.06746588 -0.035545114 0.019215114
0.08018341 0.028556548 -0.005616304 0.022903278 0.06937829 0.025544524 0.0068115774 0.018027626
-0.026702391 0.015294838 0.00737103 -0.09916857 0.043410238 0.11656593 -0.014661967 -0.07298992
-0.18759452 0.08812226 0.043724354 -0.02992385 0.020921374 0.12370483 -0.0012814712 0.0139244115

weight_ih_l1 f4 [48, 16]
00000000: 1b1b 85bc a545 9bbb 342c aa3a 1b0f cfbc
00000010: f9d2 8f3d 97fb 09bc 47a1 223d 853f f23c
00000020: dfb9 4a3c c8be 083d b60e 443d 0497 053a
00000030: 3716 0abc 2bf8 55bc 34ce a6bb b360 d43b
00000040: c0c3 b6bc 2d42 5fbc 2f8a 89bc 0816 98bc
00000050: 5f02 b73d 1030 0f3c 4eb2 473d e61f 203d
00000060: 0e99 643c 7e2f f03c ce16 1b3d e51f 573b
00000070: 9b82 b3bb 6d3e 8fbc 4080 5fbc 9132 023b
00000080: 02f2 adbc c78a 6fbc e5e7 9fbc 7b36 8ebc
00000090: 4f09 983d dcb0 2e3b 3ace 2d3d 1010 203d
000000a0: 64ac 943c ceef 2b3d d155 2f3d eb90 f83b
000000b0: d17f 66bc 65a4 acbc 0e25 6bbc 85ef 323c
000000c0: 42c5 b5bc 52db 99bc 347e a3bc 7441 59bc
000000d0: e8d2 8f3d 9207 6fbb ead0 313d 0707 473d
000000e0: c1d8 6d3c 68e4 d83c 2c87 0e3d c1c9 a33b
000000f0: 246f 0abc 44df b8bc 64e1 65bc 101e 053c
00000100: 1314 e5bc 2937 cebc 29ff d1bc a3a2 79bc
00000110: e0bd a13d 01eb 8b3b dab2 1b3d b9e0 463d
00000120: fd3a c83b b5b9 133d e184 093d 51c6 2f3a
00000130: cf87 db3a ecd4 1bbd a1a6 3fbc d9bd d13c
00000140: b907 e2bb def0 d3b8 ac6b 57bc f9fd 94bc
00000150: 826f 1d3d 2fc0 0d3b a2c9 883c a503 753c
00000160: 1887 53bb 69da e03c 79b2 ec3c f9f9 cabb
00000170: 6921 da3b 318e d0bb bd4f c5bb f2de efb9
00000180: d367 e6bb 2ce4 8c3b db37 2ebc f0c9 b7bc
00000190: 7a9b 403d 04ba e83b 3b4f d93c da70 453c
000001a0: 6797 a03b c57a 023d 9c3a 163d ca09 3bbb
000001b0: fc48 e3b9 17b0 66bb ae72 dabb d474 e6ba
000001c0: 0107 bbbb 45e9 223a 2542 24bc 2b86 c2bc
000001d0: 2c69 2f3d 21ed 153c b574 713c 47f8 433c
000001e0: 811b 4eb9 9916 c13c 97db dc3c 8813 48bb
000001f0: df2d d43b 5933 0bbb ed1d 36bc 77f8 24bc
00000200: 4a01 9abb 0eba b13b 967a 64bc dc10 94bc
00000210: bb6f 173d f6ca 093c 46c3 883c 528b 0d3c
00000220: 543e 08bb ed89 fd3c d1a0 ef3c 48ef d0bb
00000230: fdd6 eb3b f17c 90ba 4909 95bb 9dce 48bb
00000240: 5aef f6bb d15c 783a 13ef 9bbc d3d8 b8bc
00000250: 3070 6b3d a8af 493b 4507 8b3c 6099 763c
00000260: dc1b 52bb db39 303d f236 093d 29ff cbbb
00000270: 89c3 0a3c 1872 0eba 64b9 38bc 423e 14bc
00000280: b913 9cbb 4b32 3e3b d65d 36bc 7573 c2bc
00000290: f84b 063d 8e52 143c 2410 813c 0240 0a3c
000002a0: 1591 3e39 dcc0 d53c a782 df3c 5553 60bb
000002b0: 27f5 cb3b 49c8 b4ba 29d5 0dbc 808f 35bc
000002c0: 419c 26bc 998f 07bb cef9 a2bc da79 d4bb
000002d0: 1bc8 453d 2a7a bd3b 63fb 083d 338b a63c
000002e0: c220 223c 0cf4 e53c 5711 013d ef46 643a
000002f0: 723e bebb 7148 09bc 486a ceba 13a2 143c
00000300: 56d7 85bc 6a3b 81bc bc92 dbbc b99f 09bd
00000310: af70 e63d fec3 e93b fd60 2d3c ca6f 193d
00000320: 5840 cebb e7a1 843d 1d8e 173d 7d4f d9bb
00000330: 3513 903c 3a18 e83a a09f 06bd 6e21 9c3b
00000340: b927 10bb 83f2 0b3c d104 7cbc 78a9 5639
00000350: 3bcd e23c e098 853b f52b 9c3c c12b 0e3b
00000360: 257b 113c ebee 953c af73 a03c 70bf 593b
00000370: 9ae9 a6bb 8dc8 a83b 5670 9e3b ba0e 243b
00000380: 3b83 94bc 97fb 8dbc 7020 bebc a849 72bd
00000390: 0a44 013e 359d 8bbc 2c50 593c 0ebc 993d
000003a0: 70f3 b1ba 06ea 783d 3407 b63c d6ed a0ba
000003b0: acd2 653c 296a eebc 953b d6bc 454e 2c3c
000003c0: 67a2 83bc aafc 40bc f5a5 37bc c6b1 1abd
000003d0: e33b b73d 10f3 4cbb 5f7d 953c ff51 d03c
000003e0: 739a 423b 5135 2b3d 907a 273d b380 8dba
000003f0: 2124 cc3b 2eeb 72bc c1cd 98bc 5855 66ba
-0.016248276 -0.004738527 0.0012983144 -0.025275758 0.07022662 -0.0084218 0.039704587 0.029571304
0.012373417 0.03338507 0.047865592 0.00050960504 -0.008428148 -0.013059656 -0.0050904993 0.006481254
-0.022310138 -0.013626617 -0.016789524 -0.018565193 0.08935999 0.008739486 0.04875403 0.03909292
0.013952507 0.029319521 0.037863545 0.0032825407 -0.005478216 -0.017485822 -0.013641417 0.0019866566
-0.021233562 -0.014620489 -0.019519756 -0.017359963 0.074236505 0.002665571 0.042433 0.03907782
0.018148609 0.041976742 0.04280645 0.007585635 -0.01406856 -0.021074483 -0.014352096 0.010921364
-0.022188786 -0.018781338 -0.01995764 -0.013260234 0.07022649 -0.0036473018 0.043412127 0.048590686
0.01451701 0.0264761 0.03479688 0.004998416 -0.00844935 -0.022567399 -0.014030788 0.008124843
-0.027963674 -0.025172787 -0.025634365 -0.0152365295 0.07897544 0.004269958 0.038012363 0.048554156
0.0061105476 0.036065776 0.03357399 0.00067052717 0.0016748848 -0.038044855 -0.011697442 0.025603222
-0.0068978933 -0.00010106129 -0.01314823 -0.01818751 0.03843642 0.0021629443 0.016697709 0.014954482
-0.0032276567 0.027447896 0.028893696 -0.00619435 0.006656815 -0.006364607 -0.0060214684 -0.0004575174
-0.00703142 0.004299661 -0.010633434 -0.022435158 0.047023274 0.007102253 0.026527038 0.012050832
0.004900861 0.031855363 0.036676988 -0.002853977 -0.00043351192 -0.0035200173 -0.006666503 -0.0017582425
-0.005707622 0.00062145694 -0.010025536 -0.023745617 0.04282491 0.009150774 0.014737298 0.011961049
-0.00019655937 0.023570346 0.026960177 -0.003052922 0.006475195 -0.0021240322 -0.011115533 -0.010069004
-0.0046998607 0.005423791 -0.013945242 -0.018074445 0.03697179 0.008410206 0.016694676 0.008639174
-0.0020789104 0.030949557 0.029251488 -0.006376181 0.0071972595 -0.0011023564 -0.004548226 -0.003064073
-0.007535857 0.000947428 -0.019034898 -0.022564327 0.057480037 0.0030774865 0.01697124 0.015051216
-0.0032060063 0.043023925 0.033499666 -0.006225486 0.008469471 -0.00054338714 -0.011274669 -0.009048047
-0.0047630933 0.0029021676 -0.011130771 -0.023736695 0.032787293 0.009052886 0.015754767 0.008438112
0.0001817386 0.02609294 0.02728398 -0.0034229357 0.006224293 -0.00137926 -0.008656778 -0.011081576
-0.01016909 -0.0020684956 -0.019894507 -0.0064842524 0.04828654 0.0057823854 0.033442866 0.020330047
0.009895505 0.028070472 0.031510677 0.00087080797 -0.005805784 -0.008379088 -0.0015748227 0.009071845
-0.016338032 -0.015775401 -0.026803367 -0.03359959 0.112519614 0.00713396 0.010582206 0.037460126
-0.0062942915 0.06476193 0.037000764 -0.00663179 0.017587284 0.0017707415 -0.032867074 0.0047647273
-0.0021996333 0.008541706 -0.015382008 0.00020471762 0.027685752 0.004077062 0.01906393 0.002169356
0.008879458 0.018302402 0.019586412 0.0033225678 -0.0050937654 0.0051508606 0.004835169 0.0025033192
-0.018128982 -0.017331881 -0.023208827 -0.059152275 0.12623611 -0.017042736 0.013263743 0.07506572
-0.0013576578 0.060770057 0.022220232 -0.0012277912 0.014027279 -0.029103355 -0.026151458 0.010516708
-0.01606865 -0.01177899 -0.011209001 -0.037767194 0.08946969 -0.0031272806 0.018248258 0.025429724
0.002969411 0.041798893 0.04088837 -0.0010795802 0.006229893 -0.014826579 -0.018652799 -0.0008786521

weight_hh_l1 f4 [48, 16]
00000000: fcfd 89bc f869 8d3b 5179 c9bb 172a 37b9
00000010: 9495 4c3b 2878 be3c 170f cc3b d110 583b
00000020: 9bd0 03bc d640 b43c c5e2 0cbc e407 c2bb
00000030: ff46 9fbc b050 763c da42 d8bc a742 a03c
00000040: 6761 57bc 7bf2 12bc 84e7 afbc 31eb 97bc
00000050: ac41 d2bb 7068 ab3c 7b25 1b3c 7ad3 a43b
00000060: 6608 27bc 6c47 b73c ebf7 27bc 5ee2 923a
00000070: e96c c7bc ebc9 ff3b d34b 3cbc f8bf 813c
00000080: 8d24 84bc f5df b93b 8d44 fbbb b91a c6ba
00000090: 1a1f 953b 1c00 cd3c 87f8 263c 7b45 083c
000000a0: 8b95 54bc 0fa8 cd3c 36be 36bc aea4 45bc
000000b0: de11 d8bc 540a 973c 1e65 9dbc 8930 913c
000000c0: 0e65 a0bb 501a 8a3b 133d 7cbb 9243 dfbb
000000d0: 3796 573a 4012 b93c 31ba b93b f59c 5b3b
000000e0: e075 71bb 9a00 b83c 7b29 5bbb 1cd8 47bc
000000f0: 58f3 e1bc 0be2 ae3c d7d0 8abc e26d 803c
00000100: af39 f0bb 4016 15bb 487f 83bc 2df0 0d3a
00000110: f960 18bc 57bc 3a3c cd8c b3bb 8fd0 b8bb
00000120: 3c70 cb3a b4de 1b3c 5107 483c ea39 05bc
00000130: a473 13bb 744f fc3c 1ad9 3bbc 8cf9 993c
00000140: d9f1 f03b 242d 88bc 1277 bdbc c63b a5bc
00000150: 3ead 85bc 9b6d 0fbb cb86 17bc fe31 2bbc
00000160: 1cb0 c93b 1c91 70bb 47f0 073c d934 453c
00000170: 5fcb 683b 669b c13b 5d2b e43b 66cc acbb
00000180: 96ce b2bb 683b 6cbc a362 c8bc a31b 94bc
00000190: b40f 26bc 4fbe 193c 0207 a339 f283 25bb
000001a0: d2db 8ebb fe71 103c 3b3f e8ba b22c 353c
000001b0: e145 00bc 6a74 c43a 59d1 4cbb ae05 2d3b
000001c0: 382d ce3b ff36 93bc f592 c4bc 5277 b0bc
000001d0: 552c 80bc 8688 d439 fda7 bfbb 43f0 5abb
000001e0: d903 4ab9 dfdf b739 66a0 893b ff08 483c
000001f0: df29 deba 3427 84ba 13ce d33b 3eb9 003b
00000200: 2f80 033c 35d7 adbc fb43 f5bc 553b cfbc
00000210: e596 99bc 0241 a9ba 560e 00bc 9857 2abc
00000220: 6ca9 6c3b 95de 18bb acc4 ea3b c096 8e3c
00000230: 7808 7d3b abb1 7eba c49e 1c3c d62a 0ebc
00000240: 3766 2f3c 8dfc abbc e96e eebc 6161 dcbc
00000250: f3a6 afbc ef96 dbba 0abf bbbb 91b1 45bc
00000260: 6727 7b3b cb83 6ebb 813d dd3b d0f1 823c
00000270: 4dcc 973b e288 d23b d09a ab3b 75e3 53bb
00000280: 7bd6 443a 1000 96bc b26b ccbc 7fcd afbc
00000290: 2063 7cbc db96 8d3a 99b7 85ba 88df e0bb
000002a0: d01d 60ba 0213 533a 3d71 623b 4ee1 683c
000002b0: a4b7 efba 52bb 24ba abaa 9f3b 41b8 54bb
000002c0: 01af c6bb d829 e0bb 444a 87bc 6611 27bc
000002d0: bb36 97bb fa01 643c cde1 9b3b 0267 463b
000002e0: 9ba0 fbbb 92d1 663c 0e56 b0bb a2ed 2f3b
000002f0: cd61 37bc 806c 2d3b fb0c f6bb 9575 de3b
00000300: fa25 153d 47bf e3bc 75e0 37bd af9c 07bd
00000310: 88f4 fabc 3c40 18bb 0b6a 34bc 4a23 8abc
00000320: f926 5a3c f62c 94bb 95f9 553c 63dd 6e3c
00000330: c2c8 e03a 8fb2 e83c 25a0 773b 2c5d d4bc
00000340: 6810 28bc 12d6 a5bb 452c 6fbc 157a f2bb
00000350: b7f7 87ba 95ca 5b3c 2d6b 113c 91e3 db3b
00000360: b256 45bc df69 683c d1de 1dbc 2ee6 b43b
00000370: fb43 21bc 2abb 11bc f641 e7bb 160c bb3b
00000380: df21 a2bc cea9 4cbc 38c7 65bc 8221 04bd
00000390: b9a2 bbbc 2423 bf3b 76c2 a639 9966 bdbc
000003a0: 182e a2bb 7d20 843b 3ad5 f63c 14eb 06bc
000003b0: 1bd7 ab3a 5ef8 023c c56b f9bb 4c4a a23c
000003c0: 3fa8 92bb 2d35 3bbc afcc b5bc c14c b4bc
000003d0: c917 4bbc 1f12 113c 6ab7 a4bb 8655 26bb
000003e0: d1d7 823b c7a3 063c e4a3 4b3c c8aa 3f3b
000003f0: 6cb1 00bc 79fa 083d 9d0e e1bb b299 463b
-0.016844742 0.004315611 -0.0061484952 -0.0001746792 0.0031217085 0.023250654 0.006227385 0.0032969008
-0.008045341 0.022003572 -0.008598988 -0.005921351 -0.019443033 0.015033886 -0.026399065 0.019563032
-0.013145781 -0.008968945 -0.0214727 -0.018544765 -0.00641652 0.020923823 0.009469385 0.005030093
-0.010194873 0.022372924 -0.010251979 0.0011206379 -0.024343925 0.007806053 -0.011492687 0.015838608
-0.01613071 0.0056724497 -0.007668084 -0.0015114165 0.0045508267 0.025024466 0.0101910895 0.008317347
-0.012975107 0.02510455 -0.011153748 -0.0120631885 -0.026375707 0.018437542 -0.019213255 0.017723339
-0.004894859 0.0042145625 -0.0038488552 -0.006813475 0.0008223983 0.02259171 0.0056679477 0.0033510302
-0.003684394 0.022461224 -0.0033441472 -0.012197521 -0.027581856 0.02134802 -0.016945286 0.015677396
-0.007331095 -0.0022748858 -0.016051903 0.0005414512 -0.009300464 0.011397443 -0.0054794312 -0.0056400965
0.0015521119 0.009513546 0.012208776 -0.008131484 -0.0022499347 0.030799605 -0.011465335 0.018795751
0.0073530492 -0.016623087 -0.023128066 -0.020170104 -0.01631796 -0.0021885398 -0.009248446 -0.010448931
0.006155027 -0.0036707586 0.008297033 0.012036526 0.003552161 0.0059084175 0.006963177 -0.0052733896
-0.005456756 -0.01441846 -0.024461096 -0.018079584 -0.01013558 0.009383752 0.00031095004 -0.0025255647
-0.0043597007 0.00881624 -0.001771904 0.0110580195 -0.00782916 0.0014988307 -0.003125271 0.002640109
0.0062920116 -0.01797056 -0.023995856 -0.021541271 -0.01564614 0.0004053751 -0.005848883 -0.0033407367
-0.00019265655 0.00035071277 0.004200029 0.012209176 -0.0016949734 -0.0010082484 0.006463775 0.0019641663
0.008026167 -0.021220783 -0.029939642 -0.025296846 -0.01874871 -0.0012913051 -0.007815918 -0.010396861
0.0036111725 -0.0023326029 0.0071645584 0.017405868 0.0038609784 -0.00097158056 0.009559337 -0.008677205
0.010705522 -0.020994449 -0.02910562 -0.026901903 -0.021441912 -0.0016753356 -0.0057295607 -0.012066261
0.0038323046 -0.0036394473 0.0067517166 0.015984446 0.004632509 0.006425009 0.005236961 -0.003233162
0.0007508767 -0.018310577 -0.024953697 -0.021460293 -0.015404493 0.0010802405 -0.0010201811 -0.0068625845
-0.0008549364 0.00080518436 0.0034552359 0.014213873 -0.0018288982 -0.00062840164 0.00487264 -0.0032458457
-0.0060633426 -0.0068409257 -0.016514905 -0.010197019 -0.0046146787 0.013916487 0.004757142 0.00302738
-0.007679058 0.014088051 -0.0053813523 0.002684452 -0.011192751 0.0026462376 -0.0075088716 0.006788919
0.03641317 -0.02780117 -0.044891793 -0.03310841 -0.03063418 -0.0023231646 -0.011011611 -0.01686253
0.013314956 -0.0045219613 0.013059993 0.01457915 0.0017149674 0.028405456 0.0037784663 -0.025923334
-0.010257818 -0.0050609196 -0.014597957 -0.007399807 -0.0010373507 0.013414999 0.00887565 0.0067104776
-0.012044596 0.014185398 -0.009635643 0.0055206036 -0.009842868 -0.008894721 -0.0070574237 0.005708228
-0.019791542 -0.0124916565 -0.014024548 -0.032258518 -0.02290474 0.0058330465 0.00031806872 -0.023120211
-0.0049493425 0.004032193 0.030130971 -0.008234758 0.0013110371 0.007993786 -0.007611724 0.019810818
-0.004475623 -0.011426252 -0.022192327 -0.022009255 -0.012395808 0.008854418 -0.0050267475 -0.0025380566
0.0039930125 0.0082177585 0.012429211 0.002924608 -0.007854801 0.033441994 -0.006868197 0.0030304012

bias_ih_l1 f4 [48]
00000000: 4e1a e53d 4f00 e23d 9014 ff3d b996 e23d
00000010: 457e df3d d443 6b3d 774b 963d 5d92 993d
00000020: 9f79 6b3d e06a b13d 47cf 193d 4801 923d
00000030: 4cde c23d f16a 453d 04c5 673d 4970 bb3d
00000040: 13bb 83bd cae9 08bd 8838 57bd cd10 6cbd
00000050: 2122 92bd 22e4 ddbc 5ce9 11bd 76e4 01bd
00000060: d6ad dfbc bf93 0cbd ab37 18bd 2ccd cebc
00000070: f7fd 4cbd e67f 54bc 5d1d 67bd 40a3 56bd
00000080: a204 d13c 8e19 063e e35c 6cbd 3d62 f5bd
00000090: d041 8b3d 0571 0b3d 11f0 9abd b376 64bd
000000a0: d27e 00bc 7ef6 383e 8377 bcbd e08f eebd
000000b0: 9be1 0bbe d157 8a3d 4250 e1bd 8742 75bd
0.11186658 0.11035215 0.12455094 0.11063904 0.10912756 0.057437733 0.073386125 0.0749862
0.057489034 0.08662963 0.03755119 0.07129151 0.09515056 0.04819769 0.056584373 0.09152276
-0.06432166 -0.033426084 -0.052544147 -0.05763321 -0.07135416 -0.027086321 -0.03562294 -0.031712018
-0.027304571 -0.03432059 -0.037162464 -0.025244318 -0.050046887 -0.0129699465 -0.056424487 -0.05240178
0.025514904 0.13095686 -0.05770577 -0.11981628 0.06799662 0.03404333 -0.0756532 -0.055777263
-0.007842736 0.1806278 -0.092024826 -0.11648536 -0.1366028 0.06755031 -0.11001636 -0.0598779

bias_hh_l1 f4 [48]
00000000: 56fe d33d 0c75 113e ab66 be3d a823 d03d
00000010: 9f43 e13c 84b7 633d f01c 973d c0f4 9b3d
00000020: 5c30 6f3d 825e 363d 12b9 413d f572 913d
00000030: ce1a 533d c9b8 4a3d 2a10 a33d 541c ac3d
00000040: 327f 91bd f29b 08bd e0cf 44bd 69a5 64bd
00000050: 27c7 91bd e7e1 ddbc fdac 0ebd 773e 02bd
00000060: fb0b e1bc 71c0 0cbd f26a 20bd 0c75 cebc
00000070: 794a 3abd 8377 54bc a55d 88bd 3952 59bd
00000080: c04d 40be 15f1 20be 652a 10be 3676 d0bd
00000090: 6e19 1ebe 5c93 f93b ddcd a63d 6dd8 dfbd
000000a0: e6e8 193d 8616 afbc 2a2f 0b3d d894 3a3d
000000b0: b72b 1d3e 14e5 953d 9647 d33d f219 8ebc
0.10351245 0.14204806 0.09296926 0.10163051 0.027498065 0.055594936 0.07378566 0.07615042
0.05839573 0.044523723 0.047295637 0.071020044 0.051539235 0.04949263 0.079620674 0.08403841
-0.07104339 -0.033351846 -0.048049808 -0.05582181 -0.071180634 -0.027085258 -0.034832943 -0.031797852
-0.027471533 -0.034363214 -0.03916449 -0.025202297 -0.04548118 -0.012967947 -0.06658486 -0.05305693
-0.1877966 -0.15716965 -0.14078672 -0.10178797 -0.15439388 0.0076164436 0.08144734 -0.10929952
0.037575625 -0.021373045 0.033980526 0.045552105 0.15348707 0.07319084 0.10316388 -0.017346356

weight_ih_l0 f4 [48, 256]
00000000: 03f3 153c e0fd 2a3c 0027 7f3b 41c1 193c
00000010: 9abd f63b 83b4 7e3c 1c9e 273c b030 ba3b
00000020: 06cb 403b 82a4 543c a1c2 a13b b901 ec3b
00000030: 616d d03b 3a54 033c cee2 1d3b c884 a43c
00000040: 1ea7 d83b ddd3 8a3c f93c 203c ef5e a33b
00000050: 8761 433c 2ea8 aa3b 574f 1a3c 9e5a 933b
00000060: 53fb 883b 6a04 043c 5b29 853c 8d6a 503c
00000070: ecae 513b 1ec1 703c fc9b 3a3c aa5e 9e3b
00000080: 9831 453b 8d9e 303c 4aa4 9a3b 3b1b 613b
00000090: 639a b33c 33bc 5c3b a99a d43b aeac cd3b
000000a0: 10f9 273c 6b82 593c c48d 743c 0ea2 1d3c
000000b0: bfcb 153c 3eeb 813c f812 833b 1866 1e3c
000000c0: 2811 d43b 07c6 733c 315e 513b fb7a 393c
000000d0: 615e 2e3c 5777 2f3c ace8 e13b e07c 203c
000000e0: 76e0 7a3c 5011 1d3c 02e0 643b 9608 003c
000000f0: 28bb 303c ca6c 3f3c 14b6 143c 7ee8 af3b
00000100: e846 f73b 06c9 7a3c 3d56 4a3c 2535 5f3c
00000110: 8388 de3b c2cb 2a3c ab35 da3b cf4a 013b
00000120: 604a cf3b 79c9 0a3c f4d4 e83b cf2c 1d3c
00000130: acbd 413c e2f1 5c3c a896 d83b f8c0 963c
00000140: 01ea 093b de2a 323c 5832 213b ede5 293c
00000150: 2822 803c 83fb 2d3c e9c5 553b 1c21 5b3c
00000160: 9bd6 813c 2a19 5b3c a761 3b3c 0ed5 c73b
00000170: 54d8 bf3b 035d e13a 8578 073c 71c5 103c
00000180: dc3a f53b 93ce d93b 2210 3f3b 2b2a d53b
00000190: f263 b53b 613d a33b ba20 963b abb6 f33b
000001a0: 9214 ac3b 6c8f 2c3c 9f0b 273b 1ecd 343c
000001b0: 2aa5 7f3b 0a91 1b3c a4df 7d3c db9f 243c
000001c0: 112f e23b a00c 403c fbe4 f33b 17b9 143c
000001d0: 479d 193c c963 103c e1f4 1b3c d57d 003c
000001e0: 3296 e33b 69b6 a23b 93b5 583c 6b14 c93b
000001f0: 5980 3c3c 4d03 e53b d883 633c cf8b dc3b
00000200: 157d 2d3c a969 773c 2774 833c b833 873c
00000210: e42c a63b 0226 753c 57c5 a93b 45bc 973a
00000220: 4c3e de3b 4dd0 2a3c 676d 023c cf11 5d3c
00000230: 4b59 263c 237c 483c 20e7 d63b 80d4 3d3c
00000240: 2d76 043a 6fc4 363c c22e a03a d4f7 d03b
00000250: e171 873c cc62 4b3c fc77 b13b 95f8 893c
00000260: c38f 8f3c 5e7d 733c 72ca 913c f6e4 f23b
00000270: 2511 873b 1193 cb3a aecc 4b3c c19f 143c
00000280: 27b7 223c 9fde 023c a53d 3f3a 6a14 f13b
00000290: 454d 3f3b a35f ed3b 337e b23b 2ff5 063c
000002a0: b380 0a3c 910b fd3b 6a10 7a3b 4925 143c
000002b0: 18c7 6d3b c93e d13b c523 593c 6c54 cc3b
000002c0: 7107 333c cc12 673c 27af 033c 1bb7 2e3c
000002d0: b77c 633c 7457 f43b 50c9 c83b 088a f33b
000002e0: eb41 1e3c a55f 0c3b 1f3d 023c 3831 9d3b
000002f0: ad97 963b ff6c 1b3c 8a65 323c 7dc2 e33b
00000300: 5b34 2f3c 5bcf 483c 9843 3b3c bad7 813c
00000310: 8317 743b beb3 a03c 3a55 b93b 6bbe 703b
00000320: 3b9f ee3b 09e1 573c f89f f93b cfca 593c
00000330: 0aa4 633c 05b3 563c ab7b b33b 48b3 2b3c
00000340: af62 b13b bf12 393c db13 2f3b 62be f83b
00000350: 160a 593c 17df 513c 7cdd 113c 12cb 8d3c
00000360: 78ea 6e3c f671 623c 1d46 553c e422 2b3c
00000370: be09 473b afaa 333b 1073 833c a7bd 803b
00000380: 5f70 553c a208 f23b 9176 0c3b d06a 383c
00000390: 6216 0d3c b42c 363c 3da0 203c 1df9 1c3c
000003a0: 6113 823c 0424 2a3c 10f4 f13b c1dc df3b
000003b0: d0eb 113c f039 b23a 8f92 073c 4c08 1c3c
000003c0: ac61 813c fafd 5a3c bffd 423c 56ff 853c
000003d0: d616 893c 663f a63b fd5c e03b ed4d 6a3c
000003e0: 468b fa3b fa91 f13b d039 ea3b d062 843b
000003f0: 4266 aa3b 8109 903c f516 223c 32a4 4e3c
0.009152177 0.010436505 0.0038933158 0.009384454 0.0075299265 0.015545967 0.010230567 0.0056820735
0.0029417886 0.012978675 0.0049365317 0.007202354 0.006360695 0.008015687 0.0024091485 0.020082846
0.006611719 0.016946727 0.009780162 0.004985682 0.011925108 0.005208037 0.00941833 0.0044968864
0.004180351 0.008057693 0.016255071 0.012720716 0.003199513 0.01469448 0.011389729 0.004833062
0.0030089375 0.010779989 0.004719292 0.0034348506 0.021924203 0.0033681511 0.0064881635 0.0062766885
0.010252252 0.013275723 0.014926378 0.009621156 0.009142815 0.015859243 0.004000064 0.009667896
0.0064717717 0.014878756 0.0031947012 0.011320825 0.010642619 0.010709605 0.0068941917 0.0097953975
0.015312305 0.009586647 0.0034923558 0.007814547 0.010786809 0.011683652 0.009076614 0.0053682914
0.0075462945 0.015306717 0.012349662 0.0136235105 0.006791176 0.010424556 0.0066592298 0.0019728427
0.006326005 0.008470886 0.007105464 0.009593203 0.011825006 0.013485404 0.0066097565 0.018402562
0.0021044018 0.010874478 0.0024596658 0.01036976 0.015641287 0.010619047 0.0032619184 0.013374593
0.015849402 0.013372699 0.011436856 0.006098396 0.0058546457 0.0017193857 0.00826848 0.008836136
0.007483823 0.00664694 0.0029153903 0.006505271 0.005535596 0.004981682 0.004581538 0.007437547
0.0052514756 0.010532241 0.0025489104 0.011035232 0.0039008358 0.009495029 0.015495215 0.010047878
0.0069025834 0.01172176 0.007443068 0.009077332 0.009375877 0.008812853 0.009518833 0.007842501
0.006945395 0.0049655926 0.013226884 0.006136467 0.01150521 0.006988919 0.0138864145 0.0067305337
0.010588904 0.015100875 0.016046597 0.016504154 0.0050712693 0.014962675 0.0051809954 0.0011576494
0.0067823287 0.010425639 0.007960654 0.013493015 0.010153125 0.012236628 0.006558314 0.0115863085
0.000505301 0.011155232 0.0012220966 0.0063771997 0.016533794 0.012413692 0.0054159146 0.016842166
0.017524606 0.014861433 0.017796729 0.007412548 0.004121917 0.00155315 0.012438936 0.009071291
0.009931362 0.007987647 0.00072952575 0.00735717 0.0029190343 0.007244067 0.005447173 0.008237167
0.008453536 0.007722326 0.0038156756 0.009042093 0.0036282 0.0063856584 0.013253157 0.00623565
0.010927067 0.014103603 0.008037365 0.010663773 0.013884715 0.0074567143 0.006127514 0.007432226
0.009659271 0.0021419313 0.007949143 0.004797127 0.004595718 0.009486436 0.010888467 0.006950675
0.010693635 0.012256469 0.01142969 0.015849937 0.003724546 0.019616958 0.0056559118 0.0036734592
0.0072821653 0.013176211 0.0076179467 0.013292982 0.01389409 0.013104205 0.005477389 0.010479756
0.0054133753 0.011295973 0.0026714716 0.007591055 0.013247034 0.012809536 0.008902904 0.017308746
0.014582269 0.013821116 0.013017205 0.01044533 0.0030370797 0.0027414968 0.016046077 0.0039288583
0.01302728 0.007386283 0.0021432976 0.011255935 0.0086112935 0.0111190565 0.009803829 0.009580878
0.015878381 0.010384563 0.007383831 0.006831736 0.00890632 0.0013597589 0.008274688 0.0095234625
0.015793644 0.013366217 0.011901318 0.016357105 0.016734522 0.0050734757 0.0068470226 0.0143008055
0.007645997 0.007372138 0.007148005 0.0040400997 0.0052001784 0.017582657 0.009893169 0.012612389

weight_hh_l0 f4 [48, 16]
00000000: 3e69 723c 7299 853c d85e 823c d7f7 33bc
00000010: 8399 c2bc e749 faba 04c8 cc3c 370b efbc
00000020: 3a98 0f3c 9f45 cd3c a905 893b 7c03 b6bc
00000030: 08b7 583c 4e23 ffbb 1bd2 7d3c 5528 773c
00000040: 8000 9b3c 655b c33c 0fd0 15bc 1708 1bbd
00000050: 2ffb 4ebc 5849 93bc 6cbc 383d 3eab ebbc
00000060: 276b 4d3d 48c2 ee3c 256f 3fbd 2c33 05bd
00000070: 633a 5b3c 61a5 e1bc 7ecf 003d 7991 763c
00000080: 71b9 96bc 093e 35bd a6f8 063b ef72 3e3d
00000090: 8493 bcbc 02a4 0ebb b26f 5a3d 9370 98bd
000000a0: 88ce 363d 9850 3a3d 61de d8ba 7be9 84bd
000000b0: 8eb3 aeb9 06d5 ddbc 254a 813b fbc2 653c
000000c0: 3415 7a3b e8c3 aa3d aed9 6c3d 9e37 84bd
000000d0: b521 17bd c910 abbc 241d 19bd dba4 533d
000000e0: 731e 573d 9099 1e3c ce5d 95bd b494 813d
000000f0: 3ea9 273c c004 07bd c801 1cbc 4c95 3e3d
00000100: c1d2 2cbc 4345 18bd 9428 8a3c 3ece 173d
00000110: 5d4d d7bc 1cba 2e3c c6c4 4d3d fbd0 5bbd
00000120: 7c04 be3c 0afb 023d de74 753c e906 38bd
00000130: 8275 04bc 2d8b a5bb 19fd 60bb 98bb 2f3c
00000140: 0e7a 84bc f500 0dbd d984 2dba a147 003d
00000150: add3 9ebc 7636 2a3c a635 293d 1706 3cbd
00000160: 4679 033d 158a e73c af79 edbb 07bf d6bc
00000170: 6022 cfbc cc55 fa3b 48b0 43bc f8c5 c2bb
00000180: 34ec 813c bba5 32bd 2b4a d3bb 0b1b 333c
00000190: 02cd 41bc 650e 70bc abcb 5ebd b34b 6ebc
000001a0: 900b 13bc 050a 39ba dedf 76bc 43ac 4b3d
000001b0: f045 363d 506f de3c 59a0 aa3b 40e7 fbbc
000001c0: 0922 a73b c6c9 8ebc a463 013a 35e4 853c
000001d0: 48ed 0ebb dfa8 c33b ddd7 f43b 4eec 3bbc
000001e0: 2c74 a63b b7a5 8f3b c571 6c3a e90b 693b
000001f0: 850c d7bb d6ed 823c 867c bdbb 690a 36bc
00000200: 64c4 2dbb fdff 16bd b48e a53c 910d 0a3d
00000210: b5d9 babc 2fc1 a43c e832 f73c 3831 10bd
00000220: dd91 643c 7e2d b63c 0e3f 4c3c df66 8fbc
00000230: 5b83 c2bb 1358 853c 962b 93bc e91a 903a
00000240: e2fd 0f3c 43e7 163c b852 083c 3238 8bbb
00000250: 35fa 33bc 04cf 663c 88c9 aa3c a2ae 5dbc
00000260: d5c8 053c 14c1 353c e400 95bb e71c 34bb
00000270: 689a ffbb e1fa 673c c21b 19b9 382c 9bbb
00000280: ec91 b0bc 6fba 90bd 0b3f 6c3d 093a 9c3d
00000290: 18a8 97bd 16ce 5dbb 7f0a 3cbc bdb7 9ebd
000002a0: dbdf 09bc e26f 8dbc 44e7 3b3d 1305 b73c
000002b0: 62f4 163d 09fa e3bb 94f1 e5bc eb0d 0d3d
000002c0: 6f63 b73c a56b 1fbd 22f9 01bc 1d12 fb3c
000002d0: 5053 b5bc c7a9 86bc 7043 383c 8b06 4dbd
000002e0: 3a1c b23c de7e 8d3c 0ea2 fd3a c339 83ba
000002f0: f08d 6f3c cbdf ce3c afb6 713c e349 b7bc
00000300: d660 b93b 5322 bdbc b923 123c c3dc e53b
00000310: cca2 80bc e493 9aba 7421 94bc bc22 bebc
00000320: 6227 363b 49fd 183c dfc6 cd3b c692 d93b
00000330: 6094 863c d3c7 df3c e8ca c6ba e2e3 17bc
00000340: 282c bfbb deb8 f4bc ae2a 8fbb b818 c53c
00000350: 1c0c 29bb 7db1 c0b9 a669 af39 5fe6 a5bc
00000360: 66bd 4b3c 68f9 633a eb4f d9ba c01c fe3b
00000370: 3b4d 5b3b 4fdb ab39 123c ffbb ec88 36bc
00000380: f7e6 74bb 4880 b6bc e0d9 2fbc 5495 8e3c
00000390: 86ec 94ba 5e6e edba cfef ce3c 10b1 f0bc
000003a0: 4a87 af3c af8d aa3c 2a70 b7ba b9cb 05bd
000003b0: b071 86bc c289 98bb 2a59 b33b 2bc7 b7bb
000003c0: a90b 84bb 0b5c d0bc d6a0 1e3c fcb1 d63c
000003d0: 679d 59bc 96f6 ce3b 92a1 363d a267 31bd
000003e0: 6552 8c3c 9267 cc3c 31ff 103c b03e 02bd
000003f0: 00f7 88bb 692b 10bc bb1a 843b 634b 1f3b
0.0147955995 0.01630852 0.015914366 -0.010984383 -0.02375484 -0.0019095511 0.024997719 -0.029180152
0.008764321 0.025057612 0.004181583 -0.022218458 0.013227232 -0.007786191 0.015491988 0.0150852995
0.018921137 0.023847291 -0.009143843 -0.037849512 -0.012633129 -0.017979309 0.045101568 -0.028768178
0.050151017 0.029145375 -0.046736855 -0.032519504 0.01338062 -0.02754468 0.03144788 0.015049332
-0.018398972 -0.044248614 0.0020594983 0.046496328 -0.02301956 -0.0021765237 0.053329177 -0.07443347
0.044630557 0.045487016 -0.0016545766 -0.06489845 -0.00033321645 -0.027079117 0.0039456063 0.014023538
0.003815961 0.083381474 0.057824783 -0.06455921 -0.03689738 -0.020882027 -0.037381306 0.05167089
0.052519273 0.009680167 -0.072932824 0.06327191 0.010233222 -0.032963514 -0.009521909 0.0465291
-0.0105482945 -0.037175428 0.016865052 0.037061922 -0.026282007 0.010664489 0.050236486 -0.053666096
0.023195498 0.03197769 0.014981477 -0.044928465 -0.008084657 -0.0050519914 -0.0034330545 0.010725878
-0.016171481 -0.03442474 -0.0006619222 0.03131831 -0.019388044 0.010388961 0.04131093 -0.045904245
0.032098077 0.028264085 -0.007247172 -0.026214136 -0.025284946 0.0076396223 -0.011943884 -0.00594401
0.0158597 -0.043615084 -0.0064480505 0.0109317405 -0.011828663 -0.014651869 -0.05439345 -0.014544415
-0.008974925 -0.0007058683 -0.0150680225 0.04972483 0.04450029 0.027152687 0.005207103 -0.030749917
0.005100493 -0.017430197 0.0004935807 0.01634417 -0.002180891 0.0059710587 0.007472022 -0.011469914
0.0050797667 0.0043837684 0.00090196385 0.0035560078 -0.0065627717 0.01598255 -0.0057826666 -0.01111088
-0.0026514763 -0.036865223 0.020209648 0.033704344 -0.022808889 0.020111648 0.030175641 -0.03520319
0.013950792 0.02223849 0.012466205 -0.017505107 -0.005936069 0.016277349 -0.01796512 0.0010994348
0.008788558 0.0092104105 0.008320503 -0.0042486424 -0.010984947 0.014087442 0.02084805 -0.013530405
0.008165558 0.011093397 -0.0045472253 -0.0027483047 -0.007800389 0.014158935 -0.00014601558 -0.004735496
-0.021553956 -0.070668094 0.05767731 0.07628257 -0.07405108 -0.003384476 -0.011477112 -0.07749889
-0.008415188 -0.017265264 0.04587485 0.022341287 0.036854155 -0.0069572967 -0.028069295 0.0344371
0.02238628 -0.038921017 -0.007932933 0.030648286 -0.022134453 -0.016438378 0.011246547 -0.050055068
0.021741975 0.017272409 0.0019350664 -0.0010011721 0.014621243 0.025253197 0.014753028 -0.0223741
0.0056572957 -0.023087656 0.00891965 0.0070148422 -0.015702628 -0.0011793342 -0.018082358 -0.023209922
0.002779447 0.009337732 0.006279811 0.006639811 0.016428173 0.027316963 -0.0015166672 -0.00927064
-0.0058341213 -0.029873308 -0.0043691015 0.024059638 -0.0025794571 -0.00036753333 0.00033457315 -0.020251451
0.012435293 0.0008696527 -0.0016579604 0.007754892 0.003346278 0.0003277906 -0.0077891434 -0.011141043
-0.003736911 -0.022277966 -0.010733098 0.01740519 -0.0011361993 -0.0018114557 0.025260834 -0.029381305
0.021426816 0.020819513 -0.001399522 -0.03266499 -0.016411632 -0.004655094 0.0054732757 -0.0056084595
-0.0040297103 -0.025434515 0.009681901 0.026207916 -0.013282157 0.0063160164 0.04458768 -0.043311723
0.017129133 0.02495173 0.008849905 -0.031798065 -0.0041798353 -0.008799412 0.004031507 0.0024306409

bias_ih_l0 f4 [48]
00000000: ac65 fc3c a54a 453d 1980 ac3d 8d12 a8bc
00000010: 574c 973d fcd8 6c3d 0898 e93c 6e59 e53c
00000020: 17ba 7f3d 4841 eb3c fbaf cc3c b800 b43d
00000030: b547 0f3c 79aa eb3c 69dd e63c 2a51 8b3d
00000040: b774 12bb 15db f4bd 9f83 673d 43d9 bbbd
00000050: be78 a43d b6e9 b73d 4fbb 1b3e 1ceb 3c3e
00000060: ed74 c83c 932e e93c c2bb 7a3c 28b5 113e
00000070: 845d 973d fb97 c83c 8110 8c3d 16a8 de3d
00000080: ee1a d83d e538 ce3d f6f1 1dbd 6dbd da3c
00000090: ef4d 01be 9a19 fc3c 97a6 5d3d bd8d a3bd
000000a0: cf08 bf3d b2d6 1ebd 74b3 97bd 4b5f 09be
000000b0: e6bc e9bc 3c30 d03d 954b 3f3e ecac 26be
0.0308102 0.04816689 0.0842287 -0.020516658 0.073876075 0.05782412 0.028514877 0.027996745
0.06243333 0.028717652 0.024986258 0.087891996 0.008745124 0.028767811 0.028181748 0.0680259
-0.00223474 -0.11955849 0.056522008 -0.09172299 0.08030842 0.08980124 0.15208171 0.18449062
0.024469817 0.028464591 0.015303554 0.14229262 0.073908836 0.024486532 0.06839085 0.108719036
0.105520114 0.100694455 -0.03856083 0.026701653 -0.12627386 0.030773927 0.05411395 -0.07986019
0.09327852 -0.03877897 -0.07407275 -0.13415258 -0.028532457 0.1016545 0.18681176 -0.16276902

bias_hh_l0 f4 [48]
00000000: 2579 123d 81d6 643c 5162 a63d 83f3 003d
00000010: 93bf 973d 808d 7a3d 7dde 663d 8e54 e53c
00000020: cb15 713d e8dc fe3c 3415 dcbc 2084 ae3d
00000030: 88b4 66bc c8b9 f43c b118 da3c 9cc8 8a3d
00000040: df57 063e 4306 4ebc 43c4 233d 1664 a23d
00000050: 5057 563d 7d83 473b af53 02bc d701 f3bc
00000060: 9a4f 793d 0115 9c3d 7358 f63d 1727 043e
00000070: 4dbf 0f3e b9db 203d 4443 203e e743 0a3c
00000080: 9e9c f3bc c76c 023e 62c1 1b3d 2ef9 41be
00000090: 75a7 0f3b e9dc f9bb dfcd c0bd 4768 a13b
000000a0: 85e0 b6bc 4356 b43d fd00 0a3e 58cb 383d
000000b0: 5fca a33d 20a5 65bd 50b2 133e 29ee 903c
0.035760064 0.013967157 0.08124221 0.03148223 0.07409587 0.0611701 0.056364525 0.02799442
0.058858674 0.031111196 -0.02686558 0.085212946 -0.014081128 0.029873744 0.026623102 0.067765445
0.13119458 -0.012574735 0.03998209 0.07929246 0.05232936 0.0030443363 -0.007954522 -0.029663963
0.06086693 0.07621194 0.12028589 0.12905537 0.14037819 0.039272044 0.1565066 0.008439041
-0.029737767 0.12736808 0.03802622 -0.18942711 0.002191988 -0.0076252115 -0.09414267 0.004925761
-0.022323856 0.088055156 0.1347694 0.0451158 0.079975836 -0.05606568 0.1442349 0.017691689
